node {
  name: "load_images/input_producer/Const"
  op: "Const"
  attr {
    key: "_output_shapes"
    value {
      list {
        shape {
          dim {
            size: 10000
          }
        }
      }
    }
  }
  attr {
    key: "dtype"
    value {
      type: DT_STRING
    }
  }
  attr {
    key: "value"
    value {
      tensor {
        dtype: DT_STRING
        tensor_shape {
          dim {
            size: 10000
          }
        }
        string_val: "AB/0.png"
        string_val: "AB/1.png"
        string_val: "AB/2.png"
        string_val: "AB/3.png"
        string_val: "AB/4.png"
        string_val: "AB/5.png"
        string_val: "AB/6.png"
        string_val: "AB/7.png"
        string_val: "AB/8.png"
        string_val: "AB/9.png"
        string_val: "AB/10.png"
        string_val: "AB/11.png"
        string_val: "AB/12.png"
        string_val: "AB/13.png"
        string_val: "AB/14.png"
        string_val: "AB/15.png"
        string_val: "AB/16.png"
        string_val: "AB/17.png"
        string_val: "AB/18.png"
        string_val: "AB/19.png"
        string_val: "AB/20.png"
        string_val: "AB/21.png"
        string_val: "AB/22.png"
        string_val: "AB/23.png"
        string_val: "AB/24.png"
        string_val: "AB/25.png"
        string_val: "AB/26.png"
        string_val: "AB/27.png"
        string_val: "AB/28.png"
        string_val: "AB/29.png"
        string_val: "AB/30.png"
        string_val: "AB/31.png"
        string_val: "AB/32.png"
        string_val: "AB/33.png"
        string_val: "AB/34.png"
        string_val: "AB/35.png"
        string_val: "AB/36.png"
        string_val: "AB/37.png"
        string_val: "AB/38.png"
        string_val: "AB/39.png"
        string_val: "AB/40.png"
        string_val: "AB/41.png"
        string_val: "AB/42.png"
        string_val: "AB/43.png"
        string_val: "AB/44.png"
        string_val: "AB/45.png"
        string_val: "AB/46.png"
        string_val: "AB/47.png"
        string_val: "AB/48.png"
        string_val: "AB/49.png"
        string_val: "AB/50.png"
        string_val: "AB/51.png"
        string_val: "AB/52.png"
        string_val: "AB/53.png"
        string_val: "AB/54.png"
        string_val: "AB/55.png"
        string_val: "AB/56.png"
        string_val: "AB/57.png"
        string_val: "AB/58.png"
        string_val: "AB/59.png"
        string_val: "AB/60.png"
        string_val: "AB/61.png"
        string_val: "AB/62.png"
        string_val: "AB/63.png"
        string_val: "AB/64.png"
        string_val: "AB/65.png"
        string_val: "AB/66.png"
        string_val: "AB/67.png"
        string_val: "AB/68.png"
        string_val: "AB/69.png"
        string_val: "AB/70.png"
        string_val: "AB/71.png"
        string_val: "AB/72.png"
        string_val: "AB/73.png"
        string_val: "AB/74.png"
        string_val: "AB/75.png"
        string_val: "AB/76.png"
        string_val: "AB/77.png"
        string_val: "AB/78.png"
        string_val: "AB/79.png"
        string_val: "AB/80.png"
        string_val: "AB/81.png"
        string_val: "AB/82.png"
        string_val: "AB/83.png"
        string_val: "AB/84.png"
        string_val: "AB/85.png"
        string_val: "AB/86.png"
        string_val: "AB/87.png"
        string_val: "AB/88.png"
        string_val: "AB/89.png"
        string_val: "AB/90.png"
        string_val: "AB/91.png"
        string_val: "AB/92.png"
        string_val: "AB/93.png"
        string_val: "AB/94.png"
        string_val: "AB/95.png"
        string_val: "AB/96.png"
        string_val: "AB/97.png"
        string_val: "AB/98.png"
        string_val: "AB/99.png"
        string_val: "AB/100.png"
        string_val: "AB/101.png"
        string_val: "AB/102.png"
        string_val: "AB/103.png"
        string_val: "AB/104.png"
        string_val: "AB/105.png"
        string_val: "AB/106.png"
        string_val: "AB/107.png"
        string_val: "AB/108.png"
        string_val: "AB/109.png"
        string_val: "AB/110.png"
        string_val: "AB/111.png"
        string_val: "AB/112.png"
        string_val: "AB/113.png"
        string_val: "AB/114.png"
        string_val: "AB/115.png"
        string_val: "AB/116.png"
        string_val: "AB/117.png"
        string_val: "AB/118.png"
        string_val: "AB/119.png"
        string_val: "AB/120.png"
        string_val: "AB/121.png"
        string_val: "AB/122.png"
        string_val: "AB/123.png"
        string_val: "AB/124.png"
        string_val: "AB/125.png"
        string_val: "AB/126.png"
        string_val: "AB/127.png"
        string_val: "AB/128.png"
        string_val: "AB/129.png"
        string_val: "AB/130.png"
        string_val: "AB/131.png"
        string_val: "AB/132.png"
        string_val: "AB/133.png"
        string_val: "AB/134.png"
        string_val: "AB/135.png"
        string_val: "AB/136.png"
        string_val: "AB/137.png"
        string_val: "AB/138.png"
        string_val: "AB/139.png"
        string_val: "AB/140.png"
        string_val: "AB/141.png"
        string_val: "AB/142.png"
        string_val: "AB/143.png"
        string_val: "AB/144.png"
        string_val: "AB/145.png"
        string_val: "AB/146.png"
        string_val: "AB/147.png"
        string_val: "AB/148.png"
        string_val: "AB/149.png"
        string_val: "AB/150.png"
        string_val: "AB/151.png"
        string_val: "AB/152.png"
        string_val: "AB/153.png"
        string_val: "AB/154.png"
        string_val: "AB/155.png"
        string_val: "AB/156.png"
        string_val: "AB/157.png"
        string_val: "AB/158.png"
        string_val: "AB/159.png"
        string_val: "AB/160.png"
        string_val: "AB/161.png"
        string_val: "AB/162.png"
        string_val: "AB/163.png"
        string_val: "AB/164.png"
        string_val: "AB/165.png"
        string_val: "AB/166.png"
        string_val: "AB/167.png"
        string_val: "AB/168.png"
        string_val: "AB/169.png"
        string_val: "AB/170.png"
        string_val: "AB/171.png"
        string_val: "AB/172.png"
        string_val: "AB/173.png"
        string_val: "AB/174.png"
        string_val: "AB/175.png"
        string_val: "AB/176.png"
        string_val: "AB/177.png"
        string_val: "AB/178.png"
        string_val: "AB/179.png"
        string_val: "AB/180.png"
        string_val: "AB/181.png"
        string_val: "AB/182.png"
        string_val: "AB/183.png"
        string_val: "AB/184.png"
        string_val: "AB/185.png"
        string_val: "AB/186.png"
        string_val: "AB/187.png"
        string_val: "AB/188.png"
        string_val: "AB/189.png"
        string_val: "AB/190.png"
        string_val: "AB/191.png"
        string_val: "AB/192.png"
        string_val: "AB/193.png"
        string_val: "AB/194.png"
        string_val: "AB/195.png"
        string_val: "AB/196.png"
        string_val: "AB/197.png"
        string_val: "AB/198.png"
        string_val: "AB/199.png"
        string_val: "AB/200.png"
        string_val: "AB/201.png"
        string_val: "AB/202.png"
        string_val: "AB/203.png"
        string_val: "AB/204.png"
        string_val: "AB/205.png"
        string_val: "AB/206.png"
        string_val: "AB/207.png"
        string_val: "AB/208.png"
        string_val: "AB/209.png"
        string_val: "AB/210.png"
        string_val: "AB/211.png"
        string_val: "AB/212.png"
        string_val: "AB/213.png"
        string_val: "AB/214.png"
        string_val: "AB/215.png"
        string_val: "AB/216.png"
        string_val: "AB/217.png"
        string_val: "AB/218.png"
        string_val: "AB/219.png"
        string_val: "AB/220.png"
        string_val: "AB/221.png"
        string_val: "AB/222.png"
        string_val: "AB/223.png"
        string_val: "AB/224.png"
        string_val: "AB/225.png"
        string_val: "AB/226.png"
        string_val: "AB/227.png"
        string_val: "AB/228.png"
        string_val: "AB/229.png"
        string_val: "AB/230.png"
        string_val: "AB/231.png"
        string_val: "AB/232.png"
        string_val: "AB/233.png"
        string_val: "AB/234.png"
        string_val: "AB/235.png"
        string_val: "AB/236.png"
        string_val: "AB/237.png"
        string_val: "AB/238.png"
        string_val: "AB/239.png"
        string_val: "AB/240.png"
        string_val: "AB/241.png"
        string_val: "AB/242.png"
        string_val: "AB/243.png"
        string_val: "AB/244.png"
        string_val: "AB/245.png"
        string_val: "AB/246.png"
        string_val: "AB/247.png"
        string_val: "AB/248.png"
        string_val: "AB/249.png"
        string_val: "AB/250.png"
        string_val: "AB/251.png"
        string_val: "AB/252.png"
        string_val: "AB/253.png"
        string_val: "AB/254.png"
        string_val: "AB/255.png"
        string_val: "AB/256.png"
        string_val: "AB/257.png"
        string_val: "AB/258.png"
        string_val: "AB/259.png"
        string_val: "AB/260.png"
        string_val: "AB/261.png"
        string_val: "AB/262.png"
        string_val: "AB/263.png"
        string_val: "AB/264.png"
        string_val: "AB/265.png"
        string_val: "AB/266.png"
        string_val: "AB/267.png"
        string_val: "AB/268.png"
        string_val: "AB/269.png"
        string_val: "AB/270.png"
        string_val: "AB/271.png"
        string_val: "AB/272.png"
        string_val: "AB/273.png"
        string_val: "AB/274.png"
        string_val: "AB/275.png"
        string_val: "AB/276.png"
        string_val: "AB/277.png"
        string_val: "AB/278.png"
        string_val: "AB/279.png"
        string_val: "AB/280.png"
        string_val: "AB/281.png"
        string_val: "AB/282.png"
        string_val: "AB/283.png"
        string_val: "AB/284.png"
        string_val: "AB/285.png"
        string_val: "AB/286.png"
        string_val: "AB/287.png"
        string_val: "AB/288.png"
        string_val: "AB/289.png"
        string_val: "AB/290.png"
        string_val: "AB/291.png"
        string_val: "AB/292.png"
        string_val: "AB/293.png"
        string_val: "AB/294.png"
        string_val: "AB/295.png"
        string_val: "AB/296.png"
        string_val: "AB/297.png"
        string_val: "AB/298.png"
        string_val: "AB/299.png"
        string_val: "AB/300.png"
        string_val: "AB/301.png"
        string_val: "AB/302.png"
        string_val: "AB/303.png"
        string_val: "AB/304.png"
        string_val: "AB/305.png"
        string_val: "AB/306.png"
        string_val: "AB/307.png"
        string_val: "AB/308.png"
        string_val: "AB/309.png"
        string_val: "AB/310.png"
        string_val: "AB/311.png"
        string_val: "AB/312.png"
        string_val: "AB/313.png"
        string_val: "AB/314.png"
        string_val: "AB/315.png"
        string_val: "AB/316.png"
        string_val: "AB/317.png"
        string_val: "AB/318.png"
        string_val: "AB/319.png"
        string_val: "AB/320.png"
        string_val: "AB/321.png"
        string_val: "AB/322.png"
        string_val: "AB/323.png"
        string_val: "AB/324.png"
        string_val: "AB/325.png"
        string_val: "AB/326.png"
        string_val: "AB/327.png"
        string_val: "AB/328.png"
        string_val: "AB/329.png"
        string_val: "AB/330.png"
        string_val: "AB/331.png"
        string_val: "AB/332.png"
        string_val: "AB/333.png"
        string_val: "AB/334.png"
        string_val: "AB/335.png"
        string_val: "AB/336.png"
        string_val: "AB/337.png"
        string_val: "AB/338.png"
        string_val: "AB/339.png"
        string_val: "AB/340.png"
        string_val: "AB/341.png"
        string_val: "AB/342.png"
        string_val: "AB/343.png"
        string_val: "AB/344.png"
        string_val: "AB/345.png"
        string_val: "AB/346.png"
        string_val: "AB/347.png"
        string_val: "AB/348.png"
        string_val: "AB/349.png"
        string_val: "AB/350.png"
        string_val: "AB/351.png"
        string_val: "AB/352.png"
        string_val: "AB/353.png"
        string_val: "AB/354.png"
        string_val: "AB/355.png"
        string_val: "AB/356.png"
        string_val: "AB/357.png"
        string_val: "AB/358.png"
        string_val: "AB/359.png"
        string_val: "AB/360.png"
        string_val: "AB/361.png"
        string_val: "AB/362.png"
        string_val: "AB/363.png"
        string_val: "AB/364.png"
        string_val: "AB/365.png"
        string_val: "AB/366.png"
        string_val: "AB/367.png"
        string_val: "AB/368.png"
        string_val: "AB/369.png"
        string_val: "AB/370.png"
        string_val: "AB/371.png"
        string_val: "AB/372.png"
        string_val: "AB/373.png"
        string_val: "AB/374.png"
        string_val: "AB/375.png"
        string_val: "AB/376.png"
        string_val: "AB/377.png"
        string_val: "AB/378.png"
        string_val: "AB/379.png"
        string_val: "AB/380.png"
        string_val: "AB/381.png"
        string_val: "AB/382.png"
        string_val: "AB/383.png"
        string_val: "AB/384.png"
        string_val: "AB/385.png"
        string_val: "AB/386.png"
        string_val: "AB/387.png"
        string_val: "AB/388.png"
        string_val: "AB/389.png"
        string_val: "AB/390.png"
        string_val: "AB/391.png"
        string_val: "AB/392.png"
        string_val: "AB/393.png"
        string_val: "AB/394.png"
        string_val: "AB/395.png"
        string_val: "AB/396.png"
        string_val: "AB/397.png"
        string_val: "AB/398.png"
        string_val: "AB/399.png"
        string_val: "AB/400.png"
        string_val: "AB/401.png"
        string_val: "AB/402.png"
        string_val: "AB/403.png"
        string_val: "AB/404.png"
        string_val: "AB/405.png"
        string_val: "AB/406.png"
        string_val: "AB/407.png"
        string_val: "AB/408.png"
        string_val: "AB/409.png"
        string_val: "AB/410.png"
        string_val: "AB/411.png"
        string_val: "AB/412.png"
        string_val: "AB/413.png"
        string_val: "AB/414.png"
        string_val: "AB/415.png"
        string_val: "AB/416.png"
        string_val: "AB/417.png"
        string_val: "AB/418.png"
        string_val: "AB/419.png"
        string_val: "AB/420.png"
        string_val: "AB/421.png"
        string_val: "AB/422.png"
        string_val: "AB/423.png"
        string_val: "AB/424.png"
        string_val: "AB/425.png"
        string_val: "AB/426.png"
        string_val: "AB/427.png"
        string_val: "AB/428.png"
        string_val: "AB/429.png"
        string_val: "AB/430.png"
        string_val: "AB/431.png"
        string_val: "AB/432.png"
        string_val: "AB/433.png"
        string_val: "AB/434.png"
        string_val: "AB/435.png"
        string_val: "AB/436.png"
        string_val: "AB/437.png"
        string_val: "AB/438.png"
        string_val: "AB/439.png"
        string_val: "AB/440.png"
        string_val: "AB/441.png"
        string_val: "AB/442.png"
        string_val: "AB/443.png"
        string_val: "AB/444.png"
        string_val: "AB/445.png"
        string_val: "AB/446.png"
        string_val: "AB/447.png"
        string_val: "AB/448.png"
        string_val: "AB/449.png"
        string_val: "AB/450.png"
        string_val: "AB/451.png"
        string_val: "AB/452.png"
        string_val: "AB/453.png"
        string_val: "AB/454.png"
        string_val: "AB/455.png"
        string_val: "AB/456.png"
        string_val: "AB/457.png"
        string_val: "AB/458.png"
        string_val: "AB/459.png"
        string_val: "AB/460.png"
        string_val: "AB/461.png"
        string_val: "AB/462.png"
        string_val: "AB/463.png"
        string_val: "AB/464.png"
        string_val: "AB/465.png"
        string_val: "AB/466.png"
        string_val: "AB/467.png"
        string_val: "AB/468.png"
        string_val: "AB/469.png"
        string_val: "AB/470.png"
        string_val: "AB/471.png"
        string_val: "AB/472.png"
        string_val: "AB/473.png"
        string_val: "AB/474.png"
        string_val: "AB/475.png"
        string_val: "AB/476.png"
        string_val: "AB/477.png"
        string_val: "AB/478.png"
        string_val: "AB/479.png"
        string_val: "AB/480.png"
        string_val: "AB/481.png"
        string_val: "AB/482.png"
        string_val: "AB/483.png"
        string_val: "AB/484.png"
        string_val: "AB/485.png"
        string_val: "AB/486.png"
        string_val: "AB/487.png"
        string_val: "AB/488.png"
        string_val: "AB/489.png"
        string_val: "AB/490.png"
        string_val: "AB/491.png"
        string_val: "AB/492.png"
        string_val: "AB/493.png"
        string_val: "AB/494.png"
        string_val: "AB/495.png"
        string_val: "AB/496.png"
        string_val: "AB/497.png"
        string_val: "AB/498.png"
        string_val: "AB/499.png"
        string_val: "AB/500.png"
        string_val: "AB/501.png"
        string_val: "AB/502.png"
        string_val: "AB/503.png"
        string_val: "AB/504.png"
        string_val: "AB/505.png"
        string_val: "AB/506.png"
        string_val: "AB/507.png"
        string_val: "AB/508.png"
        string_val: "AB/509.png"
        string_val: "AB/510.png"
        string_val: "AB/511.png"
        string_val: "AB/512.png"
        string_val: "AB/513.png"
        string_val: "AB/514.png"
        string_val: "AB/515.png"
        string_val: "AB/516.png"
        string_val: "AB/517.png"
        string_val: "AB/518.png"
        string_val: "AB/519.png"
        string_val: "AB/520.png"
        string_val: "AB/521.png"
        string_val: "AB/522.png"
        string_val: "AB/523.png"
        string_val: "AB/524.png"
        string_val: "AB/525.png"
        string_val: "AB/526.png"
        string_val: "AB/527.png"
        string_val: "AB/528.png"
        string_val: "AB/529.png"
        string_val: "AB/530.png"
        string_val: "AB/531.png"
        string_val: "AB/532.png"
        string_val: "AB/533.png"
        string_val: "AB/534.png"
        string_val: "AB/535.png"
        string_val: "AB/536.png"
        string_val: "AB/537.png"
        string_val: "AB/538.png"
        string_val: "AB/539.png"
        string_val: "AB/540.png"
        string_val: "AB/541.png"
        string_val: "AB/542.png"
        string_val: "AB/543.png"
        string_val: "AB/544.png"
        string_val: "AB/545.png"
        string_val: "AB/546.png"
        string_val: "AB/547.png"
        string_val: "AB/548.png"
        string_val: "AB/549.png"
        string_val: "AB/550.png"
        string_val: "AB/551.png"
        string_val: "AB/552.png"
        string_val: "AB/553.png"
        string_val: "AB/554.png"
        string_val: "AB/555.png"
        string_val: "AB/556.png"
        string_val: "AB/557.png"
        string_val: "AB/558.png"
        string_val: "AB/559.png"
        string_val: "AB/560.png"
        string_val: "AB/561.png"
        string_val: "AB/562.png"
        string_val: "AB/563.png"
        string_val: "AB/564.png"
        string_val: "AB/565.png"
        string_val: "AB/566.png"
        string_val: "AB/567.png"
        string_val: "AB/568.png"
        string_val: "AB/569.png"
        string_val: "AB/570.png"
        string_val: "AB/571.png"
        string_val: "AB/572.png"
        string_val: "AB/573.png"
        string_val: "AB/574.png"
        string_val: "AB/575.png"
        string_val: "AB/576.png"
        string_val: "AB/577.png"
        string_val: "AB/578.png"
        string_val: "AB/579.png"
        string_val: "AB/580.png"
        string_val: "AB/581.png"
        string_val: "AB/582.png"
        string_val: "AB/583.png"
        string_val: "AB/584.png"
        string_val: "AB/585.png"
        string_val: "AB/586.png"
        string_val: "AB/587.png"
        string_val: "AB/588.png"
        string_val: "AB/589.png"
        string_val: "AB/590.png"
        string_val: "AB/591.png"
        string_val: "AB/592.png"
        string_val: "AB/593.png"
        string_val: "AB/594.png"
        string_val: "AB/595.png"
        string_val: "AB/596.png"
        string_val: "AB/597.png"
        string_val: "AB/598.png"
        string_val: "AB/599.png"
        string_val: "AB/600.png"
        string_val: "AB/601.png"
        string_val: "AB/602.png"
        string_val: "AB/603.png"
        string_val: "AB/604.png"
        string_val: "AB/605.png"
        string_val: "AB/606.png"
        string_val: "AB/607.png"
        string_val: "AB/608.png"
        string_val: "AB/609.png"
        string_val: "AB/610.png"
        string_val: "AB/611.png"
        string_val: "AB/612.png"
        string_val: "AB/613.png"
        string_val: "AB/614.png"
        string_val: "AB/615.png"
        string_val: "AB/616.png"
        string_val: "AB/617.png"
        string_val: "AB/618.png"
        string_val: "AB/619.png"
        string_val: "AB/620.png"
        string_val: "AB/621.png"
        string_val: "AB/622.png"
        string_val: "AB/623.png"
        string_val: "AB/624.png"
        string_val: "AB/625.png"
        string_val: "AB/626.png"
        string_val: "AB/627.png"
        string_val: "AB/628.png"
        string_val: "AB/629.png"
        string_val: "AB/630.png"
        string_val: "AB/631.png"
        string_val: "AB/632.png"
        string_val: "AB/633.png"
        string_val: "AB/634.png"
        string_val: "AB/635.png"
        string_val: "AB/636.png"
        string_val: "AB/637.png"
        string_val: "AB/638.png"
        string_val: "AB/639.png"
        string_val: "AB/640.png"
        string_val: "AB/641.png"
        string_val: "AB/642.png"
        string_val: "AB/643.png"
        string_val: "AB/644.png"
        string_val: "AB/645.png"
        string_val: "AB/646.png"
        string_val: "AB/647.png"
        string_val: "AB/648.png"
        string_val: "AB/649.png"
        string_val: "AB/650.png"
        string_val: "AB/651.png"
        string_val: "AB/652.png"
        string_val: "AB/653.png"
        string_val: "AB/654.png"
        string_val: "AB/655.png"
        string_val: "AB/656.png"
        string_val: "AB/657.png"
        string_val: "AB/658.png"
        string_val: "AB/659.png"
        string_val: "AB/660.png"
        string_val: "AB/661.png"
        string_val: "AB/662.png"
        string_val: "AB/663.png"
        string_val: "AB/664.png"
        string_val: "AB/665.png"
        string_val: "AB/666.png"
        string_val: "AB/667.png"
        string_val: "AB/668.png"
        string_val: "AB/669.png"
        string_val: "AB/670.png"
        string_val: "AB/671.png"
        string_val: "AB/672.png"
        string_val: "AB/673.png"
        string_val: "AB/674.png"
        string_val: "AB/675.png"
        string_val: "AB/676.png"
        string_val: "AB/677.png"
        string_val: "AB/678.png"
        string_val: "AB/679.png"
        string_val: "AB/680.png"
        string_val: "AB/681.png"
        string_val: "AB/682.png"
        string_val: "AB/683.png"
        string_val: "AB/684.png"
        string_val: "AB/685.png"
        string_val: "AB/686.png"
        string_val: "AB/687.png"
        string_val: "AB/688.png"
        string_val: "AB/689.png"
        string_val: "AB/690.png"
        string_val: "AB/691.png"
        string_val: "AB/692.png"
        string_val: "AB/693.png"
        string_val: "AB/694.png"
        string_val: "AB/695.png"
        string_val: "AB/696.png"
        string_val: "AB/697.png"
        string_val: "AB/698.png"
        string_val: "AB/699.png"
        string_val: "AB/700.png"
        string_val: "AB/701.png"
        string_val: "AB/702.png"
        string_val: "AB/703.png"
        string_val: "AB/704.png"
        string_val: "AB/705.png"
        string_val: "AB/706.png"
        string_val: "AB/707.png"
        string_val: "AB/708.png"
        string_val: "AB/709.png"
        string_val: "AB/710.png"
        string_val: "AB/711.png"
        string_val: "AB/712.png"
        string_val: "AB/713.png"
        string_val: "AB/714.png"
        string_val: "AB/715.png"
        string_val: "AB/716.png"
        string_val: "AB/717.png"
        string_val: "AB/718.png"
        string_val: "AB/719.png"
        string_val: "AB/720.png"
        string_val: "AB/721.png"
        string_val: "AB/722.png"
        string_val: "AB/723.png"
        string_val: "AB/724.png"
        string_val: "AB/725.png"
        string_val: "AB/726.png"
        string_val: "AB/727.png"
        string_val: "AB/728.png"
        string_val: "AB/729.png"
        string_val: "AB/730.png"
        string_val: "AB/731.png"
        string_val: "AB/732.png"
        string_val: "AB/733.png"
        string_val: "AB/734.png"
        string_val: "AB/735.png"
        string_val: "AB/736.png"
        string_val: "AB/737.png"
        string_val: "AB/738.png"
        string_val: "AB/739.png"
        string_val: "AB/740.png"
        string_val: "AB/741.png"
        string_val: "AB/742.png"
        string_val: "AB/743.png"
        string_val: "AB/744.png"
        string_val: "AB/745.png"
        string_val: "AB/746.png"
        string_val: "AB/747.png"
        string_val: "AB/748.png"
        string_val: "AB/749.png"
        string_val: "AB/750.png"
        string_val: "AB/751.png"
        string_val: "AB/752.png"
        string_val: "AB/753.png"
        string_val: "AB/754.png"
        string_val: "AB/755.png"
        string_val: "AB/756.png"
        string_val: "AB/757.png"
        string_val: "AB/758.png"
        string_val: "AB/759.png"
        string_val: "AB/760.png"
        string_val: "AB/761.png"
        string_val: "AB/762.png"
        string_val: "AB/763.png"
        string_val: "AB/764.png"
        string_val: "AB/765.png"
        string_val: "AB/766.png"
        string_val: "AB/767.png"
        string_val: "AB/768.png"
        string_val: "AB/769.png"
        string_val: "AB/770.png"
        string_val: "AB/771.png"
        string_val: "AB/772.png"
        string_val: "AB/773.png"
        string_val: "AB/774.png"
        string_val: "AB/775.png"
        string_val: "AB/776.png"
        string_val: "AB/777.png"
        string_val: "AB/778.png"
        string_val: "AB/779.png"
        string_val: "AB/780.png"
        string_val: "AB/781.png"
        string_val: "AB/782.png"
        string_val: "AB/783.png"
        string_val: "AB/784.png"
        string_val: "AB/785.png"
        string_val: "AB/786.png"
        string_val: "AB/787.png"
        string_val: "AB/788.png"
        string_val: "AB/789.png"
        string_val: "AB/790.png"
        string_val: "AB/791.png"
        string_val: "AB/792.png"
        string_val: "AB/793.png"
        string_val: "AB/794.png"
        string_val: "AB/795.png"
        string_val: "AB/796.png"
        string_val: "AB/797.png"
        string_val: "AB/798.png"
        string_val: "AB/799.png"
        string_val: "AB/800.png"
        string_val: "AB/801.png"
        string_val: "AB/802.png"
        string_val: "AB/803.png"
        string_val: "AB/804.png"
        string_val: "AB/805.png"
        string_val: "AB/806.png"
        string_val: "AB/807.png"
        string_val: "AB/808.png"
        string_val: "AB/809.png"
        string_val: "AB/810.png"
        string_val: "AB/811.png"
        string_val: "AB/812.png"
        string_val: "AB/813.png"
        string_val: "AB/814.png"
        string_val: "AB/815.png"
        string_val: "AB/816.png"
        string_val: "AB/817.png"
        string_val: "AB/818.png"
        string_val: "AB/819.png"
        string_val: "AB/820.png"
        string_val: "AB/821.png"
        string_val: "AB/822.png"
        string_val: "AB/823.png"
        string_val: "AB/824.png"
        string_val: "AB/825.png"
        string_val: "AB/826.png"
        string_val: "AB/827.png"
        string_val: "AB/828.png"
        string_val: "AB/829.png"
        string_val: "AB/830.png"
        string_val: "AB/831.png"
        string_val: "AB/832.png"
        string_val: "AB/833.png"
        string_val: "AB/834.png"
        string_val: "AB/835.png"
        string_val: "AB/836.png"
        string_val: "AB/837.png"
        string_val: "AB/838.png"
        string_val: "AB/839.png"
        string_val: "AB/840.png"
        string_val: "AB/841.png"
        string_val: "AB/842.png"
        string_val: "AB/843.png"
        string_val: "AB/844.png"
        string_val: "AB/845.png"
        string_val: "AB/846.png"
        string_val: "AB/847.png"
        string_val: "AB/848.png"
        string_val: "AB/849.png"
        string_val: "AB/850.png"
        string_val: "AB/851.png"
        string_val: "AB/852.png"
        string_val: "AB/853.png"
        string_val: "AB/854.png"
        string_val: "AB/855.png"
        string_val: "AB/856.png"
        string_val: "AB/857.png"
        string_val: "AB/858.png"
        string_val: "AB/859.png"
        string_val: "AB/860.png"
        string_val: "AB/861.png"
        string_val: "AB/862.png"
        string_val: "AB/863.png"
        string_val: "AB/864.png"
        string_val: "AB/865.png"
        string_val: "AB/866.png"
        string_val: "AB/867.png"
        string_val: "AB/868.png"
        string_val: "AB/869.png"
        string_val: "AB/870.png"
        string_val: "AB/871.png"
        string_val: "AB/872.png"
        string_val: "AB/873.png"
        string_val: "AB/874.png"
        string_val: "AB/875.png"
        string_val: "AB/876.png"
        string_val: "AB/877.png"
        string_val: "AB/878.png"
        string_val: "AB/879.png"
        string_val: "AB/880.png"
        string_val: "AB/881.png"
        string_val: "AB/882.png"
        string_val: "AB/883.png"
        string_val: "AB/884.png"
        string_val: "AB/885.png"
        string_val: "AB/886.png"
        string_val: "AB/887.png"
        string_val: "AB/888.png"
        string_val: "AB/889.png"
        string_val: "AB/890.png"
        string_val: "AB/891.png"
        string_val: "AB/892.png"
        string_val: "AB/893.png"
        string_val: "AB/894.png"
        string_val: "AB/895.png"
        string_val: "AB/896.png"
        string_val: "AB/897.png"
        string_val: "AB/898.png"
        string_val: "AB/899.png"
        string_val: "AB/900.png"
        string_val: "AB/901.png"
        string_val: "AB/902.png"
        string_val: "AB/903.png"
        string_val: "AB/904.png"
        string_val: "AB/905.png"
        string_val: "AB/906.png"
        string_val: "AB/907.png"
        string_val: "AB/908.png"
        string_val: "AB/909.png"
        string_val: "AB/910.png"
        string_val: "AB/911.png"
        string_val: "AB/912.png"
        string_val: "AB/913.png"
        string_val: "AB/914.png"
        string_val: "AB/915.png"
        string_val: "AB/916.png"
        string_val: "AB/917.png"
        string_val: "AB/918.png"
        string_val: "AB/919.png"
        string_val: "AB/920.png"
        string_val: "AB/921.png"
        string_val: "AB/922.png"
        string_val: "AB/923.png"
        string_val: "AB/924.png"
        string_val: "AB/925.png"
        string_val: "AB/926.png"
        string_val: "AB/927.png"
        string_val: "AB/928.png"
        string_val: "AB/929.png"
        string_val: "AB/930.png"
        string_val: "AB/931.png"
        string_val: "AB/932.png"
        string_val: "AB/933.png"
        string_val: "AB/934.png"
        string_val: "AB/935.png"
        string_val: "AB/936.png"
        string_val: "AB/937.png"
        string_val: "AB/938.png"
        string_val: "AB/939.png"
        string_val: "AB/940.png"
        string_val: "AB/941.png"
        string_val: "AB/942.png"
        string_val: "AB/943.png"
        string_val: "AB/944.png"
        string_val: "AB/945.png"
        string_val: "AB/946.png"
        string_val: "AB/947.png"
        string_val: "AB/948.png"
        string_val: "AB/949.png"
        string_val: "AB/950.png"
        string_val: "AB/951.png"
        string_val: "AB/952.png"
        string_val: "AB/953.png"
        string_val: "AB/954.png"
        string_val: "AB/955.png"
        string_val: "AB/956.png"
        string_val: "AB/957.png"
        string_val: "AB/958.png"
        string_val: "AB/959.png"
        string_val: "AB/960.png"
        string_val: "AB/961.png"
        string_val: "AB/962.png"
        string_val: "AB/963.png"
        string_val: "AB/964.png"
        string_val: "AB/965.png"
        string_val: "AB/966.png"
        string_val: "AB/967.png"
        string_val: "AB/968.png"
        string_val: "AB/969.png"
        string_val: "AB/970.png"
        string_val: "AB/971.png"
        string_val: "AB/972.png"
        string_val: "AB/973.png"
        string_val: "AB/974.png"
        string_val: "AB/975.png"
        string_val: "AB/976.png"
        string_val: "AB/977.png"
        string_val: "AB/978.png"
        string_val: "AB/979.png"
        string_val: "AB/980.png"
        string_val: "AB/981.png"
        string_val: "AB/982.png"
        string_val: "AB/983.png"
        string_val: "AB/984.png"
        string_val: "AB/985.png"
        string_val: "AB/986.png"
        string_val: "AB/987.png"
        string_val: "AB/988.png"
        string_val: "AB/989.png"
        string_val: "AB/990.png"
        string_val: "AB/991.png"
        string_val: "AB/992.png"
        string_val: "AB/993.png"
        string_val: "AB/994.png"
        string_val: "AB/995.png"
        string_val: "AB/996.png"
        string_val: "AB/997.png"
        string_val: "AB/998.png"
        string_val: "AB/999.png"
        string_val: "AB/1000.png"
        string_val: "AB/1001.png"
        string_val: "AB/1002.png"
        string_val: "AB/1003.png"
        string_val: "AB/1004.png"
        string_val: "AB/1005.png"
        string_val: "AB/1006.png"
        string_val: "AB/1007.png"
        string_val: "AB/1008.png"
        string_val: "AB/1009.png"
        string_val: "AB/1010.png"
        string_val: "AB/1011.png"
        string_val: "AB/1012.png"
        string_val: "AB/1013.png"
        string_val: "AB/1014.png"
        string_val: "AB/1015.png"
        string_val: "AB/1016.png"
        string_val: "AB/1017.png"
        string_val: "AB/1018.png"
        string_val: "AB/1019.png"
        string_val: "AB/1020.png"
        string_val: "AB/1021.png"
        string_val: "AB/1022.png"
        string_val: "AB/1023.png"
        string_val: "AB/1024.png"
        string_val: "AB/1025.png"
        string_val: "AB/1026.png"
        string_val: "AB/1027.png"
        string_val: "AB/1028.png"
        string_val: "AB/1029.png"
        string_val: "AB/1030.png"
        string_val: "AB/1031.png"
        string_val: "AB/1032.png"
        string_val: "AB/1033.png"
        string_val: "AB/1034.png"
        string_val: "AB/1035.png"
        string_val: "AB/1036.png"
        string_val: "AB/1037.png"
        string_val: "AB/1038.png"
        string_val: "AB/1039.png"
        string_val: "AB/1040.png"
        string_val: "AB/1041.png"
        string_val: "AB/1042.png"
        string_val: "AB/1043.png"
        string_val: "AB/1044.png"
        string_val: "AB/1045.png"
        string_val: "AB/1046.png"
        string_val: "AB/1047.png"
        string_val: "AB/1048.png"
        string_val: "AB/1049.png"
        string_val: "AB/1050.png"
        string_val: "AB/1051.png"
        string_val: "AB/1052.png"
        string_val: "AB/1053.png"
        string_val: "AB/1054.png"
        string_val: "AB/1055.png"
        string_val: "AB/1056.png"
        string_val: "AB/1057.png"
        string_val: "AB/1058.png"
        string_val: "AB/1059.png"
        string_val: "AB/1060.png"
        string_val: "AB/1061.png"
        string_val: "AB/1062.png"
        string_val: "AB/1063.png"
        string_val: "AB/1064.png"
        string_val: "AB/1065.png"
        string_val: "AB/1066.png"
        string_val: "AB/1067.png"
        string_val: "AB/1068.png"
        string_val: "AB/1069.png"
        string_val: "AB/1070.png"
        string_val: "AB/1071.png"
        string_val: "AB/1072.png"
        string_val: "AB/1073.png"
        string_val: "AB/1074.png"
        string_val: "AB/1075.png"
        string_val: "AB/1076.png"
        string_val: "AB/1077.png"
        string_val: "AB/1078.png"
        string_val: "AB/1079.png"
        string_val: "AB/1080.png"
        string_val: "AB/1081.png"
        string_val: "AB/1082.png"
        string_val: "AB/1083.png"
        string_val: "AB/1084.png"
        string_val: "AB/1085.png"
        string_val: "AB/1086.png"
        string_val: "AB/1087.png"
        string_val: "AB/1088.png"
        string_val: "AB/1089.png"
        string_val: "AB/1090.png"
        string_val: "AB/1091.png"
        string_val: "AB/1092.png"
        string_val: "AB/1093.png"
        string_val: "AB/1094.png"
        string_val: "AB/1095.png"
        string_val: "AB/1096.png"
        string_val: "AB/1097.png"
        string_val: "AB/1098.png"
        string_val: "AB/1099.png"
        string_val: "AB/1100.png"
        string_val: "AB/1101.png"
        string_val: "AB/1102.png"
        string_val: "AB/1103.png"
        string_val: "AB/1104.png"
        string_val: "AB/1105.png"
        string_val: "AB/1106.png"
        string_val: "AB/1107.png"
        string_val: "AB/1108.png"
        string_val: "AB/1109.png"
        string_val: "AB/1110.png"
        string_val: "AB/1111.png"
        string_val: "AB/1112.png"
        string_val: "AB/1113.png"
        string_val: "AB/1114.png"
        string_val: "AB/1115.png"
        string_val: "AB/1116.png"
        string_val: "AB/1117.png"
        string_val: "AB/1118.png"
        string_val: "AB/1119.png"
        string_val: "AB/1120.png"
        string_val: "AB/1121.png"
        string_val: "AB/1122.png"
        string_val: "AB/1123.png"
        string_val: "AB/1124.png"
        string_val: "AB/1125.png"
        string_val: "AB/1126.png"
        string_val: "AB/1127.png"
        string_val: "AB/1128.png"
        string_val: "AB/1129.png"
        string_val: "AB/1130.png"
        string_val: "AB/1131.png"
        string_val: "AB/1132.png"
        string_val: "AB/1133.png"
        string_val: "AB/1134.png"
        string_val: "AB/1135.png"
        string_val: "AB/1136.png"
        string_val: "AB/1137.png"
        string_val: "AB/1138.png"
        string_val: "AB/1139.png"
        string_val: "AB/1140.png"
        string_val: "AB/1141.png"
        string_val: "AB/1142.png"
        string_val: "AB/1143.png"
        string_val: "AB/1144.png"
        string_val: "AB/1145.png"
        string_val: "AB/1146.png"
        string_val: "AB/1147.png"
        string_val: "AB/1148.png"
        string_val: "AB/1149.png"
        string_val: "AB/1150.png"
        string_val: "AB/1151.png"
        string_val: "AB/1152.png"
        string_val: "AB/1153.png"
        string_val: "AB/1154.png"
        string_val: "AB/1155.png"
        string_val: "AB/1156.png"
        string_val: "AB/1157.png"
        string_val: "AB/1158.png"
        string_val: "AB/1159.png"
        string_val: "AB/1160.png"
        string_val: "AB/1161.png"
        string_val: "AB/1162.png"
        string_val: "AB/1163.png"
        string_val: "AB/1164.png"
        string_val: "AB/1165.png"
        string_val: "AB/1166.png"
        string_val: "AB/1167.png"
        string_val: "AB/1168.png"
        string_val: "AB/1169.png"
        string_val: "AB/1170.png"
        string_val: "AB/1171.png"
        string_val: "AB/1172.png"
        string_val: "AB/1173.png"
        string_val: "AB/1174.png"
        string_val: "AB/1175.png"
        string_val: "AB/1176.png"
        string_val: "AB/1177.png"
        string_val: "AB/1178.png"
        string_val: "AB/1179.png"
        string_val: "AB/1180.png"
        string_val: "AB/1181.png"
        string_val: "AB/1182.png"
        string_val: "AB/1183.png"
        string_val: "AB/1184.png"
        string_val: "AB/1185.png"
        string_val: "AB/1186.png"
        string_val: "AB/1187.png"
        string_val: "AB/1188.png"
        string_val: "AB/1189.png"
        string_val: "AB/1190.png"
        string_val: "AB/1191.png"
        string_val: "AB/1192.png"
        string_val: "AB/1193.png"
        string_val: "AB/1194.png"
        string_val: "AB/1195.png"
        string_val: "AB/1196.png"
        string_val: "AB/1197.png"
        string_val: "AB/1198.png"
        string_val: "AB/1199.png"
        string_val: "AB/1200.png"
        string_val: "AB/1201.png"
        string_val: "AB/1202.png"
        string_val: "AB/1203.png"
        string_val: "AB/1204.png"
        string_val: "AB/1205.png"
        string_val: "AB/1206.png"
        string_val: "AB/1207.png"
        string_val: "AB/1208.png"
        string_val: "AB/1209.png"
        string_val: "AB/1210.png"
        string_val: "AB/1211.png"
        string_val: "AB/1212.png"
        string_val: "AB/1213.png"
        string_val: "AB/1214.png"
        string_val: "AB/1215.png"
        string_val: "AB/1216.png"
        string_val: "AB/1217.png"
        string_val: "AB/1218.png"
        string_val: "AB/1219.png"
        string_val: "AB/1220.png"
        string_val: "AB/1221.png"
        string_val: "AB/1222.png"
        string_val: "AB/1223.png"
        string_val: "AB/1224.png"
        string_val: "AB/1225.png"
        string_val: "AB/1226.png"
        string_val: "AB/1227.png"
        string_val: "AB/1228.png"
        string_val: "AB/1229.png"
        string_val: "AB/1230.png"
        string_val: "AB/1231.png"
        string_val: "AB/1232.png"
        string_val: "AB/1233.png"
        string_val: "AB/1234.png"
        string_val: "AB/1235.png"
        string_val: "AB/1236.png"
        string_val: "AB/1237.png"
        string_val: "AB/1238.png"
        string_val: "AB/1239.png"
        string_val: "AB/1240.png"
        string_val: "AB/1241.png"
        string_val: "AB/1242.png"
        string_val: "AB/1243.png"
        string_val: "AB/1244.png"
        string_val: "AB/1245.png"
        string_val: "AB/1246.png"
        string_val: "AB/1247.png"
        string_val: "AB/1248.png"
        string_val: "AB/1249.png"
        string_val: "AB/1250.png"
        string_val: "AB/1251.png"
        string_val: "AB/1252.png"
        string_val: "AB/1253.png"
        string_val: "AB/1254.png"
        string_val: "AB/1255.png"
        string_val: "AB/1256.png"
        string_val: "AB/1257.png"
        string_val: "AB/1258.png"
        string_val: "AB/1259.png"
        string_val: "AB/1260.png"
        string_val: "AB/1261.png"
        string_val: "AB/1262.png"
        string_val: "AB/1263.png"
        string_val: "AB/1264.png"
        string_val: "AB/1265.png"
        string_val: "AB/1266.png"
        string_val: "AB/1267.png"
        string_val: "AB/1268.png"
        string_val: "AB/1269.png"
        string_val: "AB/1270.png"
        string_val: "AB/1271.png"
        string_val: "AB/1272.png"
        string_val: "AB/1273.png"
        string_val: "AB/1274.png"
        string_val: "AB/1275.png"
        string_val: "AB/1276.png"
        string_val: "AB/1277.png"
        string_val: "AB/1278.png"
        string_val: "AB/1279.png"
        string_val: "AB/1280.png"
        string_val: "AB/1281.png"
        string_val: "AB/1282.png"
        string_val: "AB/1283.png"
        string_val: "AB/1284.png"
        string_val: "AB/1285.png"
        string_val: "AB/1286.png"
        string_val: "AB/1287.png"
        string_val: "AB/1288.png"
        string_val: "AB/1289.png"
        string_val: "AB/1290.png"
        string_val: "AB/1291.png"
        string_val: "AB/1292.png"
        string_val: "AB/1293.png"
        string_val: "AB/1294.png"
        string_val: "AB/1295.png"
        string_val: "AB/1296.png"
        string_val: "AB/1297.png"
        string_val: "AB/1298.png"
        string_val: "AB/1299.png"
        string_val: "AB/1300.png"
        string_val: "AB/1301.png"
        string_val: "AB/1302.png"
        string_val: "AB/1303.png"
        string_val: "AB/1304.png"
        string_val: "AB/1305.png"
        string_val: "AB/1306.png"
        string_val: "AB/1307.png"
        string_val: "AB/1308.png"
        string_val: "AB/1309.png"
        string_val: "AB/1310.png"
        string_val: "AB/1311.png"
        string_val: "AB/1312.png"
        string_val: "AB/1313.png"
        string_val: "AB/1314.png"
        string_val: "AB/1315.png"
        string_val: "AB/1316.png"
        string_val: "AB/1317.png"
        string_val: "AB/1318.png"
        string_val: "AB/1319.png"
        string_val: "AB/1320.png"
        string_val: "AB/1321.png"
        string_val: "AB/1322.png"
        string_val: "AB/1323.png"
        string_val: "AB/1324.png"
        string_val: "AB/1325.png"
        string_val: "AB/1326.png"
        string_val: "AB/1327.png"
        string_val: "AB/1328.png"
        string_val: "AB/1329.png"
        string_val: "AB/1330.png"
        string_val: "AB/1331.png"
        string_val: "AB/1332.png"
        string_val: "AB/1333.png"
        string_val: "AB/1334.png"
        string_val: "AB/1335.png"
        string_val: "AB/1336.png"
        string_val: "AB/1337.png"
        string_val: "AB/1338.png"
        string_val: "AB/1339.png"
        string_val: "AB/1340.png"
        string_val: "AB/1341.png"
        string_val: "AB/1342.png"
        string_val: "AB/1343.png"
        string_val: "AB/1344.png"
        string_val: "AB/1345.png"
        string_val: "AB/1346.png"
        string_val: "AB/1347.png"
        string_val: "AB/1348.png"
        string_val: "AB/1349.png"
        string_val: "AB/1350.png"
        string_val: "AB/1351.png"
        string_val: "AB/1352.png"
        string_val: "AB/1353.png"
        string_val: "AB/1354.png"
        string_val: "AB/1355.png"
        string_val: "AB/1356.png"
        string_val: "AB/1357.png"
        string_val: "AB/1358.png"
        string_val: "AB/1359.png"
        string_val: "AB/1360.png"
        string_val: "AB/1361.png"
        string_val: "AB/1362.png"
        string_val: "AB/1363.png"
        string_val: "AB/1364.png"
        string_val: "AB/1365.png"
        string_val: "AB/1366.png"
        string_val: "AB/1367.png"
        string_val: "AB/1368.png"
        string_val: "AB/1369.png"
        string_val: "AB/1370.png"
        string_val: "AB/1371.png"
        string_val: "AB/1372.png"
        string_val: "AB/1373.png"
        string_val: "AB/1374.png"
        string_val: "AB/1375.png"
        string_val: "AB/1376.png"
        string_val: "AB/1377.png"
        string_val: "AB/1378.png"
        string_val: "AB/1379.png"
        string_val: "AB/1380.png"
        string_val: "AB/1381.png"
        string_val: "AB/1382.png"
        string_val: "AB/1383.png"
        string_val: "AB/1384.png"
        string_val: "AB/1385.png"
        string_val: "AB/1386.png"
        string_val: "AB/1387.png"
        string_val: "AB/1388.png"
        string_val: "AB/1389.png"
        string_val: "AB/1390.png"
        string_val: "AB/1391.png"
        string_val: "AB/1392.png"
        string_val: "AB/1393.png"
        string_val: "AB/1394.png"
        string_val: "AB/1395.png"
        string_val: "AB/1396.png"
        string_val: "AB/1397.png"
        string_val: "AB/1398.png"
        string_val: "AB/1399.png"
        string_val: "AB/1400.png"
        string_val: "AB/1401.png"
        string_val: "AB/1402.png"
        string_val: "AB/1403.png"
        string_val: "AB/1404.png"
        string_val: "AB/1405.png"
        string_val: "AB/1406.png"
        string_val: "AB/1407.png"
        string_val: "AB/1408.png"
        string_val: "AB/1409.png"
        string_val: "AB/1410.png"
        string_val: "AB/1411.png"
        string_val: "AB/1412.png"
        string_val: "AB/1413.png"
        string_val: "AB/1414.png"
        string_val: "AB/1415.png"
        string_val: "AB/1416.png"
        string_val: "AB/1417.png"
        string_val: "AB/1418.png"
        string_val: "AB/1419.png"
        string_val: "AB/1420.png"
        string_val: "AB/1421.png"
        string_val: "AB/1422.png"
        string_val: "AB/1423.png"
        string_val: "AB/1424.png"
        string_val: "AB/1425.png"
        string_val: "AB/1426.png"
        string_val: "AB/1427.png"
        string_val: "AB/1428.png"
        string_val: "AB/1429.png"
        string_val: "AB/1430.png"
        string_val: "AB/1431.png"
        string_val: "AB/1432.png"
        string_val: "AB/1433.png"
        string_val: "AB/1434.png"
        string_val: "AB/1435.png"
        string_val: "AB/1436.png"
        string_val: "AB/1437.png"
        string_val: "AB/1438.png"
        string_val: "AB/1439.png"
        string_val: "AB/1440.png"
        string_val: "AB/1441.png"
        string_val: "AB/1442.png"
        string_val: "AB/1443.png"
        string_val: "AB/1444.png"
        string_val: "AB/1445.png"
        string_val: "AB/1446.png"
        string_val: "AB/1447.png"
        string_val: "AB/1448.png"
        string_val: "AB/1449.png"
        string_val: "AB/1450.png"
        string_val: "AB/1451.png"
        string_val: "AB/1452.png"
        string_val: "AB/1453.png"
        string_val: "AB/1454.png"
        string_val: "AB/1455.png"
        string_val: "AB/1456.png"
        string_val: "AB/1457.png"
        string_val: "AB/1458.png"
        string_val: "AB/1459.png"
        string_val: "AB/1460.png"
        string_val: "AB/1461.png"
        string_val: "AB/1462.png"
        string_val: "AB/1463.png"
        string_val: "AB/1464.png"
        string_val: "AB/1465.png"
        string_val: "AB/1466.png"
        string_val: "AB/1467.png"
        string_val: "AB/1468.png"
        string_val: "AB/1469.png"
        string_val: "AB/1470.png"
        string_val: "AB/1471.png"
        string_val: "AB/1472.png"
        string_val: "AB/1473.png"
        string_val: "AB/1474.png"
        string_val: "AB/1475.png"
        string_val: "AB/1476.png"
        string_val: "AB/1477.png"
        string_val: "AB/1478.png"
        string_val: "AB/1479.png"
        string_val: "AB/1480.png"
        string_val: "AB/1481.png"
        string_val: "AB/1482.png"
        string_val: "AB/1483.png"
        string_val: "AB/1484.png"
        string_val: "AB/1485.png"
        string_val: "AB/1486.png"
        string_val: "AB/1487.png"
        string_val: "AB/1488.png"
        string_val: "AB/1489.png"
        string_val: "AB/1490.png"
        string_val: "AB/1491.png"
        string_val: "AB/1492.png"
        string_val: "AB/1493.png"
        string_val: "AB/1494.png"
        string_val: "AB/1495.png"
        string_val: "AB/1496.png"
        string_val: "AB/1497.png"
        string_val: "AB/1498.png"
        string_val: "AB/1499.png"
        string_val: "AB/1500.png"
        string_val: "AB/1501.png"
        string_val: "AB/1502.png"
        string_val: "AB/1503.png"
        string_val: "AB/1504.png"
        string_val: "AB/1505.png"
        string_val: "AB/1506.png"
        string_val: "AB/1507.png"
        string_val: "AB/1508.png"
        string_val: "AB/1509.png"
        string_val: "AB/1510.png"
        string_val: "AB/1511.png"
        string_val: "AB/1512.png"
        string_val: "AB/1513.png"
        string_val: "AB/1514.png"
        string_val: "AB/1515.png"
        string_val: "AB/1516.png"
        string_val: "AB/1517.png"
        string_val: "AB/1518.png"
        string_val: "AB/1519.png"
        string_val: "AB/1520.png"
        string_val: "AB/1521.png"
        string_val: "AB/1522.png"
        string_val: "AB/1523.png"
        string_val: "AB/1524.png"
        string_val: "AB/1525.png"
        string_val: "AB/1526.png"
        string_val: "AB/1527.png"
        string_val: "AB/1528.png"
        string_val: "AB/1529.png"
        string_val: "AB/1530.png"
        string_val: "AB/1531.png"
        string_val: "AB/1532.png"
        string_val: "AB/1533.png"
        string_val: "AB/1534.png"
        string_val: "AB/1535.png"
        string_val: "AB/1536.png"
        string_val: "AB/1537.png"
        string_val: "AB/1538.png"
        string_val: "AB/1539.png"
        string_val: "AB/1540.png"
        string_val: "AB/1541.png"
        string_val: "AB/1542.png"
        string_val: "AB/1543.png"
        string_val: "AB/1544.png"
        string_val: "AB/1545.png"
        string_val: "AB/1546.png"
        string_val: "AB/1547.png"
        string_val: "AB/1548.png"
        string_val: "AB/1549.png"
        string_val: "AB/1550.png"
        string_val: "AB/1551.png"
        string_val: "AB/1552.png"
        string_val: "AB/1553.png"
        string_val: "AB/1554.png"
        string_val: "AB/1555.png"
        string_val: "AB/1556.png"
        string_val: "AB/1557.png"
        string_val: "AB/1558.png"
        string_val: "AB/1559.png"
        string_val: "AB/1560.png"
        string_val: "AB/1561.png"
        string_val: "AB/1562.png"
        string_val: "AB/1563.png"
        string_val: "AB/1564.png"
        string_val: "AB/1565.png"
        string_val: "AB/1566.png"
        string_val: "AB/1567.png"
        string_val: "AB/1568.png"
        string_val: "AB/1569.png"
        string_val: "AB/1570.png"
        string_val: "AB/1571.png"
        string_val: "AB/1572.png"
        string_val: "AB/1573.png"
        string_val: "AB/1574.png"
        string_val: "AB/1575.png"
        string_val: "AB/1576.png"
        string_val: "AB/1577.png"
        string_val: "AB/1578.png"
        string_val: "AB/1579.png"
        string_val: "AB/1580.png"
        string_val: "AB/1581.png"
        string_val: "AB/1582.png"
        string_val: "AB/1583.png"
        string_val: "AB/1584.png"
        string_val: "AB/1585.png"
        string_val: "AB/1586.png"
        string_val: "AB/1587.png"
        string_val: "AB/1588.png"
        string_val: "AB/1589.png"
        string_val: "AB/1590.png"
        string_val: "AB/1591.png"
        string_val: "AB/1592.png"
        string_val: "AB/1593.png"
        string_val: "AB/1594.png"
        string_val: "AB/1595.png"
        string_val: "AB/1596.png"
        string_val: "AB/1597.png"
        string_val: "AB/1598.png"
        string_val: "AB/1599.png"
        string_val: "AB/1600.png"
        string_val: "AB/1601.png"
        string_val: "AB/1602.png"
        string_val: "AB/1603.png"
        string_val: "AB/1604.png"
        string_val: "AB/1605.png"
        string_val: "AB/1606.png"
        string_val: "AB/1607.png"
        string_val: "AB/1608.png"
        string_val: "AB/1609.png"
        string_val: "AB/1610.png"
        string_val: "AB/1611.png"
        string_val: "AB/1612.png"
        string_val: "AB/1613.png"
        string_val: "AB/1614.png"
        string_val: "AB/1615.png"
        string_val: "AB/1616.png"
        string_val: "AB/1617.png"
        string_val: "AB/1618.png"
        string_val: "AB/1619.png"
        string_val: "AB/1620.png"
        string_val: "AB/1621.png"
        string_val: "AB/1622.png"
        string_val: "AB/1623.png"
        string_val: "AB/1624.png"
        string_val: "AB/1625.png"
        string_val: "AB/1626.png"
        string_val: "AB/1627.png"
        string_val: "AB/1628.png"
        string_val: "AB/1629.png"
        string_val: "AB/1630.png"
        string_val: "AB/1631.png"
        string_val: "AB/1632.png"
        string_val: "AB/1633.png"
        string_val: "AB/1634.png"
        string_val: "AB/1635.png"
        string_val: "AB/1636.png"
        string_val: "AB/1637.png"
        string_val: "AB/1638.png"
        string_val: "AB/1639.png"
        string_val: "AB/1640.png"
        string_val: "AB/1641.png"
        string_val: "AB/1642.png"
        string_val: "AB/1643.png"
        string_val: "AB/1644.png"
        string_val: "AB/1645.png"
        string_val: "AB/1646.png"
        string_val: "AB/1647.png"
        string_val: "AB/1648.png"
        string_val: "AB/1649.png"
        string_val: "AB/1650.png"
        string_val: "AB/1651.png"
        string_val: "AB/1652.png"
        string_val: "AB/1653.png"
        string_val: "AB/1654.png"
        string_val: "AB/1655.png"
        string_val: "AB/1656.png"
        string_val: "AB/1657.png"
        string_val: "AB/1658.png"
        string_val: "AB/1659.png"
        string_val: "AB/1660.png"
        string_val: "AB/1661.png"
        string_val: "AB/1662.png"
        string_val: "AB/1663.png"
        string_val: "AB/1664.png"
        string_val: "AB/1665.png"
        string_val: "AB/1666.png"
        string_val: "AB/1667.png"
        string_val: "AB/1668.png"
        string_val: "AB/1669.png"
        string_val: "AB/1670.png"
        string_val: "AB/1671.png"
        string_val: "AB/1672.png"
        string_val: "AB/1673.png"
        string_val: "AB/1674.png"
        string_val: "AB/1675.png"
        string_val: "AB/1676.png"
        string_val: "AB/1677.png"
        string_val: "AB/1678.png"
        string_val: "AB/1679.png"
        string_val: "AB/1680.png"
        string_val: "AB/1681.png"
        string_val: "AB/1682.png"
        string_val: "AB/1683.png"
        string_val: "AB/1684.png"
        string_val: "AB/1685.png"
        string_val: "AB/1686.png"
        string_val: "AB/1687.png"
        string_val: "AB/1688.png"
        string_val: "AB/1689.png"
        string_val: "AB/1690.png"
        string_val: "AB/1691.png"
        string_val: "AB/1692.png"
        string_val: "AB/1693.png"
        string_val: "AB/1694.png"
        string_val: "AB/1695.png"
        string_val: "AB/1696.png"
        string_val: "AB/1697.png"
        string_val: "AB/1698.png"
        string_val: "AB/1699.png"
        string_val: "AB/1700.png"
        string_val: "AB/1701.png"
        string_val: "AB/1702.png"
        string_val: "AB/1703.png"
        string_val: "AB/1704.png"
        string_val: "AB/1705.png"
        string_val: "AB/1706.png"
        string_val: "AB/1707.png"
        string_val: "AB/1708.png"
        string_val: "AB/1709.png"
        string_val: "AB/1710.png"
        string_val: "AB/1711.png"
        string_val: "AB/1712.png"
        string_val: "AB/1713.png"
        string_val: "AB/1714.png"
        string_val: "AB/1715.png"
        string_val: "AB/1716.png"
        string_val: "AB/1717.png"
        string_val: "AB/1718.png"
        string_val: "AB/1719.png"
        string_val: "AB/1720.png"
        string_val: "AB/1721.png"
        string_val: "AB/1722.png"
        string_val: "AB/1723.png"
        string_val: "AB/1724.png"
        string_val: "AB/1725.png"
        string_val: "AB/1726.png"
        string_val: "AB/1727.png"
        string_val: "AB/1728.png"
        string_val: "AB/1729.png"
        string_val: "AB/1730.png"
        string_val: "AB/1731.png"
        string_val: "AB/1732.png"
        string_val: "AB/1733.png"
        string_val: "AB/1734.png"
        string_val: "AB/1735.png"
        string_val: "AB/1736.png"
        string_val: "AB/1737.png"
        string_val: "AB/1738.png"
        string_val: "AB/1739.png"
        string_val: "AB/1740.png"
        string_val: "AB/1741.png"
        string_val: "AB/1742.png"
        string_val: "AB/1743.png"
        string_val: "AB/1744.png"
        string_val: "AB/1745.png"
        string_val: "AB/1746.png"
        string_val: "AB/1747.png"
        string_val: "AB/1748.png"
        string_val: "AB/1749.png"
        string_val: "AB/1750.png"
        string_val: "AB/1751.png"
        string_val: "AB/1752.png"
        string_val: "AB/1753.png"
        string_val: "AB/1754.png"
        string_val: "AB/1755.png"
        string_val: "AB/1756.png"
        string_val: "AB/1757.png"
        string_val: "AB/1758.png"
        string_val: "AB/1759.png"
        string_val: "AB/1760.png"
        string_val: "AB/1761.png"
        string_val: "AB/1762.png"
        string_val: "AB/1763.png"
        string_val: "AB/1764.png"
        string_val: "AB/1765.png"
        string_val: "AB/1766.png"
        string_val: "AB/1767.png"
        string_val: "AB/1768.png"
        string_val: "AB/1769.png"
        string_val: "AB/1770.png"
        string_val: "AB/1771.png"
        string_val: "AB/1772.png"
        string_val: "AB/1773.png"
        string_val: "AB/1774.png"
        string_val: "AB/1775.png"
        string_val: "AB/1776.png"
        string_val: "AB/1777.png"
        string_val: "AB/1778.png"
        string_val: "AB/1779.png"
        string_val: "AB/1780.png"
        string_val: "AB/1781.png"
        string_val: "AB/1782.png"
        string_val: "AB/1783.png"
        string_val: "AB/1784.png"
        string_val: "AB/1785.png"
        string_val: "AB/1786.png"
        string_val: "AB/1787.png"
        string_val: "AB/1788.png"
        string_val: "AB/1789.png"
        string_val: "AB/1790.png"
        string_val: "AB/1791.png"
        string_val: "AB/1792.png"
        string_val: "AB/1793.png"
        string_val: "AB/1794.png"
        string_val: "AB/1795.png"
        string_val: "AB/1796.png"
        string_val: "AB/1797.png"
        string_val: "AB/1798.png"
        string_val: "AB/1799.png"
        string_val: "AB/1800.png"
        string_val: "AB/1801.png"
        string_val: "AB/1802.png"
        string_val: "AB/1803.png"
        string_val: "AB/1804.png"
        string_val: "AB/1805.png"
        string_val: "AB/1806.png"
        string_val: "AB/1807.png"
        string_val: "AB/1808.png"
        string_val: "AB/1809.png"
        string_val: "AB/1810.png"
        string_val: "AB/1811.png"
        string_val: "AB/1812.png"
        string_val: "AB/1813.png"
        string_val: "AB/1814.png"
        string_val: "AB/1815.png"
        string_val: "AB/1816.png"
        string_val: "AB/1817.png"
        string_val: "AB/1818.png"
        string_val: "AB/1819.png"
        string_val: "AB/1820.png"
        string_val: "AB/1821.png"
        string_val: "AB/1822.png"
        string_val: "AB/1823.png"
        string_val: "AB/1824.png"
        string_val: "AB/1825.png"
        string_val: "AB/1826.png"
        string_val: "AB/1827.png"
        string_val: "AB/1828.png"
        string_val: "AB/1829.png"
        string_val: "AB/1830.png"
        string_val: "AB/1831.png"
        string_val: "AB/1832.png"
        string_val: "AB/1833.png"
        string_val: "AB/1834.png"
        string_val: "AB/1835.png"
        string_val: "AB/1836.png"
        string_val: "AB/1837.png"
        string_val: "AB/1838.png"
        string_val: "AB/1839.png"
        string_val: "AB/1840.png"
        string_val: "AB/1841.png"
        string_val: "AB/1842.png"
        string_val: "AB/1843.png"
        string_val: "AB/1844.png"
        string_val: "AB/1845.png"
        string_val: "AB/1846.png"
        string_val: "AB/1847.png"
        string_val: "AB/1848.png"
        string_val: "AB/1849.png"
        string_val: "AB/1850.png"
        string_val: "AB/1851.png"
        string_val: "AB/1852.png"
        string_val: "AB/1853.png"
        string_val: "AB/1854.png"
        string_val: "AB/1855.png"
        string_val: "AB/1856.png"
        string_val: "AB/1857.png"
        string_val: "AB/1858.png"
        string_val: "AB/1859.png"
        string_val: "AB/1860.png"
        string_val: "AB/1861.png"
        string_val: "AB/1862.png"
        string_val: "AB/1863.png"
        string_val: "AB/1864.png"
        string_val: "AB/1865.png"
        string_val: "AB/1866.png"
        string_val: "AB/1867.png"
        string_val: "AB/1868.png"
        string_val: "AB/1869.png"
        string_val: "AB/1870.png"
        string_val: "AB/1871.png"
        string_val: "AB/1872.png"
        string_val: "AB/1873.png"
        string_val: "AB/1874.png"
        string_val: "AB/1875.png"
        string_val: "AB/1876.png"
        string_val: "AB/1877.png"
        string_val: "AB/1878.png"
        string_val: "AB/1879.png"
        string_val: "AB/1880.png"
        string_val: "AB/1881.png"
        string_val: "AB/1882.png"
        string_val: "AB/1883.png"
        string_val: "AB/1884.png"
        string_val: "AB/1885.png"
        string_val: "AB/1886.png"
        string_val: "AB/1887.png"
        string_val: "AB/1888.png"
        string_val: "AB/1889.png"
        string_val: "AB/1890.png"
        string_val: "AB/1891.png"
        string_val: "AB/1892.png"
        string_val: "AB/1893.png"
        string_val: "AB/1894.png"
        string_val: "AB/1895.png"
        string_val: "AB/1896.png"
        string_val: "AB/1897.png"
        string_val: "AB/1898.png"
        string_val: "AB/1899.png"
        string_val: "AB/1900.png"
        string_val: "AB/1901.png"
        string_val: "AB/1902.png"
        string_val: "AB/1903.png"
        string_val: "AB/1904.png"
        string_val: "AB/1905.png"
        string_val: "AB/1906.png"
        string_val: "AB/1907.png"
        string_val: "AB/1908.png"
        string_val: "AB/1909.png"
        string_val: "AB/1910.png"
        string_val: "AB/1911.png"
        string_val: "AB/1912.png"
        string_val: "AB/1913.png"
        string_val: "AB/1914.png"
        string_val: "AB/1915.png"
        string_val: "AB/1916.png"
        string_val: "AB/1917.png"
        string_val: "AB/1918.png"
        string_val: "AB/1919.png"
        string_val: "AB/1920.png"
        string_val: "AB/1921.png"
        string_val: "AB/1922.png"
        string_val: "AB/1923.png"
        string_val: "AB/1924.png"
        string_val: "AB/1925.png"
        string_val: "AB/1926.png"
        string_val: "AB/1927.png"
        string_val: "AB/1928.png"
        string_val: "AB/1929.png"
        string_val: "AB/1930.png"
        string_val: "AB/1931.png"
        string_val: "AB/1932.png"
        string_val: "AB/1933.png"
        string_val: "AB/1934.png"
        string_val: "AB/1935.png"
        string_val: "AB/1936.png"
        string_val: "AB/1937.png"
        string_val: "AB/1938.png"
        string_val: "AB/1939.png"
        string_val: "AB/1940.png"
        string_val: "AB/1941.png"
        string_val: "AB/1942.png"
        string_val: "AB/1943.png"
        string_val: "AB/1944.png"
        string_val: "AB/1945.png"
        string_val: "AB/1946.png"
        string_val: "AB/1947.png"
        string_val: "AB/1948.png"
        string_val: "AB/1949.png"
        string_val: "AB/1950.png"
        string_val: "AB/1951.png"
        string_val: "AB/1952.png"
        string_val: "AB/1953.png"
        string_val: "AB/1954.png"
        string_val: "AB/1955.png"
        string_val: "AB/1956.png"
        string_val: "AB/1957.png"
        string_val: "AB/1958.png"
        string_val: "AB/1959.png"
        string_val: "AB/1960.png"
        string_val: "AB/1961.png"
        string_val: "AB/1962.png"
        string_val: "AB/1963.png"
        string_val: "AB/1964.png"
        string_val: "AB/1965.png"
        string_val: "AB/1966.png"
        string_val: "AB/1967.png"
        string_val: "AB/1968.png"
        string_val: "AB/1969.png"
        string_val: "AB/1970.png"
        string_val: "AB/1971.png"
        string_val: "AB/1972.png"
        string_val: "AB/1973.png"
        string_val: "AB/1974.png"
        string_val: "AB/1975.png"
        string_val: "AB/1976.png"
        string_val: "AB/1977.png"
        string_val: "AB/1978.png"
        string_val: "AB/1979.png"
        string_val: "AB/1980.png"
        string_val: "AB/1981.png"
        string_val: "AB/1982.png"
        string_val: "AB/1983.png"
        string_val: "AB/1984.png"
        string_val: "AB/1985.png"
        string_val: "AB/1986.png"
        string_val: "AB/1987.png"
        string_val: "AB/1988.png"
        string_val: "AB/1989.png"
        string_val: "AB/1990.png"
        string_val: "AB/1991.png"
        string_val: "AB/1992.png"
        string_val: "AB/1993.png"
        string_val: "AB/1994.png"
        string_val: "AB/1995.png"
        string_val: "AB/1996.png"
        string_val: "AB/1997.png"
        string_val: "AB/1998.png"
        string_val: "AB/1999.png"
        string_val: "AB/2000.png"
        string_val: "AB/2001.png"
        string_val: "AB/2002.png"
        string_val: "AB/2003.png"
        string_val: "AB/2004.png"
        string_val: "AB/2005.png"
        string_val: "AB/2006.png"
        string_val: "AB/2007.png"
        string_val: "AB/2008.png"
        string_val: "AB/2009.png"
        string_val: "AB/2010.png"
        string_val: "AB/2011.png"
        string_val: "AB/2012.png"
        string_val: "AB/2013.png"
        string_val: "AB/2014.png"
        string_val: "AB/2015.png"
        string_val: "AB/2016.png"
        string_val: "AB/2017.png"
        string_val: "AB/2018.png"
        string_val: "AB/2019.png"
        string_val: "AB/2020.png"
        string_val: "AB/2021.png"
        string_val: "AB/2022.png"
        string_val: "AB/2023.png"
        string_val: "AB/2024.png"
        string_val: "AB/2025.png"
        string_val: "AB/2026.png"
        string_val: "AB/2027.png"
        string_val: "AB/2028.png"
        string_val: "AB/2029.png"
        string_val: "AB/2030.png"
        string_val: "AB/2031.png"
        string_val: "AB/2032.png"
        string_val: "AB/2033.png"
        string_val: "AB/2034.png"
        string_val: "AB/2035.png"
        string_val: "AB/2036.png"
        string_val: "AB/2037.png"
        string_val: "AB/2038.png"
        string_val: "AB/2039.png"
        string_val: "AB/2040.png"
        string_val: "AB/2041.png"
        string_val: "AB/2042.png"
        string_val: "AB/2043.png"
        string_val: "AB/2044.png"
        string_val: "AB/2045.png"
        string_val: "AB/2046.png"
        string_val: "AB/2047.png"
        string_val: "AB/2048.png"
        string_val: "AB/2049.png"
        string_val: "AB/2050.png"
        string_val: "AB/2051.png"
        string_val: "AB/2052.png"
        string_val: "AB/2053.png"
        string_val: "AB/2054.png"
        string_val: "AB/2055.png"
        string_val: "AB/2056.png"
        string_val: "AB/2057.png"
        string_val: "AB/2058.png"
        string_val: "AB/2059.png"
        string_val: "AB/2060.png"
        string_val: "AB/2061.png"
        string_val: "AB/2062.png"
        string_val: "AB/2063.png"
        string_val: "AB/2064.png"
        string_val: "AB/2065.png"
        string_val: "AB/2066.png"
        string_val: "AB/2067.png"
        string_val: "AB/2068.png"
        string_val: "AB/2069.png"
        string_val: "AB/2070.png"
        string_val: "AB/2071.png"
        string_val: "AB/2072.png"
        string_val: "AB/2073.png"
        string_val: "AB/2074.png"
        string_val: "AB/2075.png"
        string_val: "AB/2076.png"
        string_val: "AB/2077.png"
        string_val: "AB/2078.png"
        string_val: "AB/2079.png"
        string_val: "AB/2080.png"
        string_val: "AB/2081.png"
        string_val: "AB/2082.png"
        string_val: "AB/2083.png"
        string_val: "AB/2084.png"
        string_val: "AB/2085.png"
        string_val: "AB/2086.png"
        string_val: "AB/2087.png"
        string_val: "AB/2088.png"
        string_val: "AB/2089.png"
        string_val: "AB/2090.png"
        string_val: "AB/2091.png"
        string_val: "AB/2092.png"
        string_val: "AB/2093.png"
        string_val: "AB/2094.png"
        string_val: "AB/2095.png"
        string_val: "AB/2096.png"
        string_val: "AB/2097.png"
        string_val: "AB/2098.png"
        string_val: "AB/2099.png"
        string_val: "AB/2100.png"
        string_val: "AB/2101.png"
        string_val: "AB/2102.png"
        string_val: "AB/2103.png"
        string_val: "AB/2104.png"
        string_val: "AB/2105.png"
        string_val: "AB/2106.png"
        string_val: "AB/2107.png"
        string_val: "AB/2108.png"
        string_val: "AB/2109.png"
        string_val: "AB/2110.png"
        string_val: "AB/2111.png"
        string_val: "AB/2112.png"
        string_val: "AB/2113.png"
        string_val: "AB/2114.png"
        string_val: "AB/2115.png"
        string_val: "AB/2116.png"
        string_val: "AB/2117.png"
        string_val: "AB/2118.png"
        string_val: "AB/2119.png"
        string_val: "AB/2120.png"
        string_val: "AB/2121.png"
        string_val: "AB/2122.png"
        string_val: "AB/2123.png"
        string_val: "AB/2124.png"
        string_val: "AB/2125.png"
        string_val: "AB/2126.png"
        string_val: "AB/2127.png"
        string_val: "AB/2128.png"
        string_val: "AB/2129.png"
        string_val: "AB/2130.png"
        string_val: "AB/2131.png"
        string_val: "AB/2132.png"
        string_val: "AB/2133.png"
        string_val: "AB/2134.png"
        string_val: "AB/2135.png"
        string_val: "AB/2136.png"
        string_val: "AB/2137.png"
        string_val: "AB/2138.png"
        string_val: "AB/2139.png"
        string_val: "AB/2140.png"
        string_val: "AB/2141.png"
        string_val: "AB/2142.png"
        string_val: "AB/2143.png"
        string_val: "AB/2144.png"
        string_val: "AB/2145.png"
        string_val: "AB/2146.png"
        string_val: "AB/2147.png"
        string_val: "AB/2148.png"
        string_val: "AB/2149.png"
        string_val: "AB/2150.png"
        string_val: "AB/2151.png"
        string_val: "AB/2152.png"
        string_val: "AB/2153.png"
        string_val: "AB/2154.png"
        string_val: "AB/2155.png"
        string_val: "AB/2156.png"
        string_val: "AB/2157.png"
        string_val: "AB/2158.png"
        string_val: "AB/2159.png"
        string_val: "AB/2160.png"
        string_val: "AB/2161.png"
        string_val: "AB/2162.png"
        string_val: "AB/2163.png"
        string_val: "AB/2164.png"
        string_val: "AB/2165.png"
        string_val: "AB/2166.png"
        string_val: "AB/2167.png"
        string_val: "AB/2168.png"
        string_val: "AB/2169.png"
        string_val: "AB/2170.png"
        string_val: "AB/2171.png"
        string_val: "AB/2172.png"
        string_val: "AB/2173.png"
        string_val: "AB/2174.png"
        string_val: "AB/2175.png"
        string_val: "AB/2176.png"
        string_val: "AB/2177.png"
        string_val: "AB/2178.png"
        string_val: "AB/2179.png"
        string_val: "AB/2180.png"
        string_val: "AB/2181.png"
        string_val: "AB/2182.png"
        string_val: "AB/2183.png"
        string_val: "AB/2184.png"
        string_val: "AB/2185.png"
        string_val: "AB/2186.png"
        string_val: "AB/2187.png"
        string_val: "AB/2188.png"
        string_val: "AB/2189.png"
        string_val: "AB/2190.png"
        string_val: "AB/2191.png"
        string_val: "AB/2192.png"
        string_val: "AB/2193.png"
        string_val: "AB/2194.png"
        string_val: "AB/2195.png"
        string_val: "AB/2196.png"
        string_val: "AB/2197.png"
        string_val: "AB/2198.png"
        string_val: "AB/2199.png"
        string_val: "AB/2200.png"
        string_val: "AB/2201.png"
        string_val: "AB/2202.png"
        string_val: "AB/2203.png"
        string_val: "AB/2204.png"
        string_val: "AB/2205.png"
        string_val: "AB/2206.png"
        string_val: "AB/2207.png"
        string_val: "AB/2208.png"
        string_val: "AB/2209.png"
        string_val: "AB/2210.png"
        string_val: "AB/2211.png"
        string_val: "AB/2212.png"
        string_val: "AB/2213.png"
        string_val: "AB/2214.png"
        string_val: "AB/2215.png"
        string_val: "AB/2216.png"
        string_val: "AB/2217.png"
        string_val: "AB/2218.png"
        string_val: "AB/2219.png"
        string_val: "AB/2220.png"
        string_val: "AB/2221.png"
        string_val: "AB/2222.png"
        string_val: "AB/2223.png"
        string_val: "AB/2224.png"
        string_val: "AB/2225.png"
        string_val: "AB/2226.png"
        string_val: "AB/2227.png"
        string_val: "AB/2228.png"
        string_val: "AB/2229.png"
        string_val: "AB/2230.png"
        string_val: "AB/2231.png"
        string_val: "AB/2232.png"
        string_val: "AB/2233.png"
        string_val: "AB/2234.png"
        string_val: "AB/2235.png"
        string_val: "AB/2236.png"
        string_val: "AB/2237.png"
        string_val: "AB/2238.png"
        string_val: "AB/2239.png"
        string_val: "AB/2240.png"
        string_val: "AB/2241.png"
        string_val: "AB/2242.png"
        string_val: "AB/2243.png"
        string_val: "AB/2244.png"
        string_val: "AB/2245.png"
        string_val: "AB/2246.png"
        string_val: "AB/2247.png"
        string_val: "AB/2248.png"
        string_val: "AB/2249.png"
        string_val: "AB/2250.png"
        string_val: "AB/2251.png"
        string_val: "AB/2252.png"
        string_val: "AB/2253.png"
        string_val: "AB/2254.png"
        string_val: "AB/2255.png"
        string_val: "AB/2256.png"
        string_val: "AB/2257.png"
        string_val: "AB/2258.png"
        string_val: "AB/2259.png"
        string_val: "AB/2260.png"
        string_val: "AB/2261.png"
        string_val: "AB/2262.png"
        string_val: "AB/2263.png"
        string_val: "AB/2264.png"
        string_val: "AB/2265.png"
        string_val: "AB/2266.png"
        string_val: "AB/2267.png"
        string_val: "AB/2268.png"
        string_val: "AB/2269.png"
        string_val: "AB/2270.png"
        string_val: "AB/2271.png"
        string_val: "AB/2272.png"
        string_val: "AB/2273.png"
        string_val: "AB/2274.png"
        string_val: "AB/2275.png"
        string_val: "AB/2276.png"
        string_val: "AB/2277.png"
        string_val: "AB/2278.png"
        string_val: "AB/2279.png"
        string_val: "AB/2280.png"
        string_val: "AB/2281.png"
        string_val: "AB/2282.png"
        string_val: "AB/2283.png"
        string_val: "AB/2284.png"
        string_val: "AB/2285.png"
        string_val: "AB/2286.png"
        string_val: "AB/2287.png"
        string_val: "AB/2288.png"
        string_val: "AB/2289.png"
        string_val: "AB/2290.png"
        string_val: "AB/2291.png"
        string_val: "AB/2292.png"
        string_val: "AB/2293.png"
        string_val: "AB/2294.png"
        string_val: "AB/2295.png"
        string_val: "AB/2296.png"
        string_val: "AB/2297.png"
        string_val: "AB/2298.png"
        string_val: "AB/2299.png"
        string_val: "AB/2300.png"
        string_val: "AB/2301.png"
        string_val: "AB/2302.png"
        string_val: "AB/2303.png"
        string_val: "AB/2304.png"
        string_val: "AB/2305.png"
        string_val: "AB/2306.png"
        string_val: "AB/2307.png"
        string_val: "AB/2308.png"
        string_val: "AB/2309.png"
        string_val: "AB/2310.png"
        string_val: "AB/2311.png"
        string_val: "AB/2312.png"
        string_val: "AB/2313.png"
        string_val: "AB/2314.png"
        string_val: "AB/2315.png"
        string_val: "AB/2316.png"
        string_val: "AB/2317.png"
        string_val: "AB/2318.png"
        string_val: "AB/2319.png"
        string_val: "AB/2320.png"
        string_val: "AB/2321.png"
        string_val: "AB/2322.png"
        string_val: "AB/2323.png"
        string_val: "AB/2324.png"
        string_val: "AB/2325.png"
        string_val: "AB/2326.png"
        string_val: "AB/2327.png"
        string_val: "AB/2328.png"
        string_val: "AB/2329.png"
        string_val: "AB/2330.png"
        string_val: "AB/2331.png"
        string_val: "AB/2332.png"
        string_val: "AB/2333.png"
        string_val: "AB/2334.png"
        string_val: "AB/2335.png"
        string_val: "AB/2336.png"
        string_val: "AB/2337.png"
        string_val: "AB/2338.png"
        string_val: "AB/2339.png"
        string_val: "AB/2340.png"
        string_val: "AB/2341.png"
        string_val: "AB/2342.png"
        string_val: "AB/2343.png"
        string_val: "AB/2344.png"
        string_val: "AB/2345.png"
        string_val: "AB/2346.png"
        string_val: "AB/2347.png"
        string_val: "AB/2348.png"
        string_val: "AB/2349.png"
        string_val: "AB/2350.png"
        string_val: "AB/2351.png"
        string_val: "AB/2352.png"
        string_val: "AB/2353.png"
        string_val: "AB/2354.png"
        string_val: "AB/2355.png"
        string_val: "AB/2356.png"
        string_val: "AB/2357.png"
        string_val: "AB/2358.png"
        string_val: "AB/2359.png"
        string_val: "AB/2360.png"
        string_val: "AB/2361.png"
        string_val: "AB/2362.png"
        string_val: "AB/2363.png"
        string_val: "AB/2364.png"
        string_val: "AB/2365.png"
        string_val: "AB/2366.png"
        string_val: "AB/2367.png"
        string_val: "AB/2368.png"
        string_val: "AB/2369.png"
        string_val: "AB/2370.png"
        string_val: "AB/2371.png"
        string_val: "AB/2372.png"
        string_val: "AB/2373.png"
        string_val: "AB/2374.png"
        string_val: "AB/2375.png"
        string_val: "AB/2376.png"
        string_val: "AB/2377.png"
        string_val: "AB/2378.png"
        string_val: "AB/2379.png"
        string_val: "AB/2380.png"
        string_val: "AB/2381.png"
        string_val: "AB/2382.png"
        string_val: "AB/2383.png"
        string_val: "AB/2384.png"
        string_val: "AB/2385.png"
        string_val: "AB/2386.png"
        string_val: "AB/2387.png"
        string_val: "AB/2388.png"
        string_val: "AB/2389.png"
        string_val: "AB/2390.png"
        string_val: "AB/2391.png"
        string_val: "AB/2392.png"
        string_val: "AB/2393.png"
        string_val: "AB/2394.png"
        string_val: "AB/2395.png"
        string_val: "AB/2396.png"
        string_val: "AB/2397.png"
        string_val: "AB/2398.png"
        string_val: "AB/2399.png"
        string_val: "AB/2400.png"
        string_val: "AB/2401.png"
        string_val: "AB/2402.png"
        string_val: "AB/2403.png"
        string_val: "AB/2404.png"
        string_val: "AB/2405.png"
        string_val: "AB/2406.png"
        string_val: "AB/2407.png"
        string_val: "AB/2408.png"
        string_val: "AB/2409.png"
        string_val: "AB/2410.png"
        string_val: "AB/2411.png"
        string_val: "AB/2412.png"
        string_val: "AB/2413.png"
        string_val: "AB/2414.png"
        string_val: "AB/2415.png"
        string_val: "AB/2416.png"
        string_val: "AB/2417.png"
        string_val: "AB/2418.png"
        string_val: "AB/2419.png"
        string_val: "AB/2420.png"
        string_val: "AB/2421.png"
        string_val: "AB/2422.png"
        string_val: "AB/2423.png"
        string_val: "AB/2424.png"
        string_val: "AB/2425.png"
        string_val: "AB/2426.png"
        string_val: "AB/2427.png"
        string_val: "AB/2428.png"
        string_val: "AB/2429.png"
        string_val: "AB/2430.png"
        string_val: "AB/2431.png"
        string_val: "AB/2432.png"
        string_val: "AB/2433.png"
        string_val: "AB/2434.png"
        string_val: "AB/2435.png"
        string_val: "AB/2436.png"
        string_val: "AB/2437.png"
        string_val: "AB/2438.png"
        string_val: "AB/2439.png"
        string_val: "AB/2440.png"
        string_val: "AB/2441.png"
        string_val: "AB/2442.png"
        string_val: "AB/2443.png"
        string_val: "AB/2444.png"
        string_val: "AB/2445.png"
        string_val: "AB/2446.png"
        string_val: "AB/2447.png"
        string_val: "AB/2448.png"
        string_val: "AB/2449.png"
        string_val: "AB/2450.png"
        string_val: "AB/2451.png"
        string_val: "AB/2452.png"
        string_val: "AB/2453.png"
        string_val: "AB/2454.png"
        string_val: "AB/2455.png"
        string_val: "AB/2456.png"
        string_val: "AB/2457.png"
        string_val: "AB/2458.png"
        string_val: "AB/2459.png"
        string_val: "AB/2460.png"
        string_val: "AB/2461.png"
        string_val: "AB/2462.png"
        string_val: "AB/2463.png"
        string_val: "AB/2464.png"
        string_val: "AB/2465.png"
        string_val: "AB/2466.png"
        string_val: "AB/2467.png"
        string_val: "AB/2468.png"
        string_val: "AB/2469.png"
        string_val: "AB/2470.png"
        string_val: "AB/2471.png"
        string_val: "AB/2472.png"
        string_val: "AB/2473.png"
        string_val: "AB/2474.png"
        string_val: "AB/2475.png"
        string_val: "AB/2476.png"
        string_val: "AB/2477.png"
        string_val: "AB/2478.png"
        string_val: "AB/2479.png"
        string_val: "AB/2480.png"
        string_val: "AB/2481.png"
        string_val: "AB/2482.png"
        string_val: "AB/2483.png"
        string_val: "AB/2484.png"
        string_val: "AB/2485.png"
        string_val: "AB/2486.png"
        string_val: "AB/2487.png"
        string_val: "AB/2488.png"
        string_val: "AB/2489.png"
        string_val: "AB/2490.png"
        string_val: "AB/2491.png"
        string_val: "AB/2492.png"
        string_val: "AB/2493.png"
        string_val: "AB/2494.png"
        string_val: "AB/2495.png"
        string_val: "AB/2496.png"
        string_val: "AB/2497.png"
        string_val: "AB/2498.png"
        string_val: "AB/2499.png"
        string_val: "AB/2500.png"
        string_val: "AB/2501.png"
        string_val: "AB/2502.png"
        string_val: "AB/2503.png"
        string_val: "AB/2504.png"
        string_val: "AB/2505.png"
        string_val: "AB/2506.png"
        string_val: "AB/2507.png"
        string_val: "AB/2508.png"
        string_val: "AB/2509.png"
        string_val: "AB/2510.png"
        string_val: "AB/2511.png"
        string_val: "AB/2512.png"
        string_val: "AB/2513.png"
        string_val: "AB/2514.png"
        string_val: "AB/2515.png"
        string_val: "AB/2516.png"
        string_val: "AB/2517.png"
        string_val: "AB/2518.png"
        string_val: "AB/2519.png"
        string_val: "AB/2520.png"
        string_val: "AB/2521.png"
        string_val: "AB/2522.png"
        string_val: "AB/2523.png"
        string_val: "AB/2524.png"
        string_val: "AB/2525.png"
        string_val: "AB/2526.png"
        string_val: "AB/2527.png"
        string_val: "AB/2528.png"
        string_val: "AB/2529.png"
        string_val: "AB/2530.png"
        string_val: "AB/2531.png"
        string_val: "AB/2532.png"
        string_val: "AB/2533.png"
        string_val: "AB/2534.png"
        string_val: "AB/2535.png"
        string_val: "AB/2536.png"
        string_val: "AB/2537.png"
        string_val: "AB/2538.png"
        string_val: "AB/2539.png"
        string_val: "AB/2540.png"
        string_val: "AB/2541.png"
        string_val: "AB/2542.png"
        string_val: "AB/2543.png"
        string_val: "AB/2544.png"
        string_val: "AB/2545.png"
        string_val: "AB/2546.png"
        string_val: "AB/2547.png"
        string_val: "AB/2548.png"
        string_val: "AB/2549.png"
        string_val: "AB/2550.png"
        string_val: "AB/2551.png"
        string_val: "AB/2552.png"
        string_val: "AB/2553.png"
        string_val: "AB/2554.png"
        string_val: "AB/2555.png"
        string_val: "AB/2556.png"
        string_val: "AB/2557.png"
        string_val: "AB/2558.png"
        string_val: "AB/2559.png"
        string_val: "AB/2560.png"
        string_val: "AB/2561.png"
        string_val: "AB/2562.png"
        string_val: "AB/2563.png"
        string_val: "AB/2564.png"
        string_val: "AB/2565.png"
        string_val: "AB/2566.png"
        string_val: "AB/2567.png"
        string_val: "AB/2568.png"
        string_val: "AB/2569.png"
        string_val: "AB/2570.png"
        string_val: "AB/2571.png"
        string_val: "AB/2572.png"
        string_val: "AB/2573.png"
        string_val: "AB/2574.png"
        string_val: "AB/2575.png"
        string_val: "AB/2576.png"
        string_val: "AB/2577.png"
        string_val: "AB/2578.png"
        string_val: "AB/2579.png"
        string_val: "AB/2580.png"
        string_val: "AB/2581.png"
        string_val: "AB/2582.png"
        string_val: "AB/2583.png"
        string_val: "AB/2584.png"
        string_val: "AB/2585.png"
        string_val: "AB/2586.png"
        string_val: "AB/2587.png"
        string_val: "AB/2588.png"
        string_val: "AB/2589.png"
        string_val: "AB/2590.png"
        string_val: "AB/2591.png"
        string_val: "AB/2592.png"
        string_val: "AB/2593.png"
        string_val: "AB/2594.png"
        string_val: "AB/2595.png"
        string_val: "AB/2596.png"
        string_val: "AB/2597.png"
        string_val: "AB/2598.png"
        string_val: "AB/2599.png"
        string_val: "AB/2600.png"
        string_val: "AB/2601.png"
        string_val: "AB/2602.png"
        string_val: "AB/2603.png"
        string_val: "AB/2604.png"
        string_val: "AB/2605.png"
        string_val: "AB/2606.png"
        string_val: "AB/2607.png"
        string_val: "AB/2608.png"
        string_val: "AB/2609.png"
        string_val: "AB/2610.png"
        string_val: "AB/2611.png"
        string_val: "AB/2612.png"
        string_val: "AB/2613.png"
        string_val: "AB/2614.png"
        string_val: "AB/2615.png"
        string_val: "AB/2616.png"
        string_val: "AB/2617.png"
        string_val: "AB/2618.png"
        string_val: "AB/2619.png"
        string_val: "AB/2620.png"
        string_val: "AB/2621.png"
        string_val: "AB/2622.png"
        string_val: "AB/2623.png"
        string_val: "AB/2624.png"
        string_val: "AB/2625.png"
        string_val: "AB/2626.png"
        string_val: "AB/2627.png"
        string_val: "AB/2628.png"
        string_val: "AB/2629.png"
        string_val: "AB/2630.png"
        string_val: "AB/2631.png"
        string_val: "AB/2632.png"
        string_val: "AB/2633.png"
        string_val: "AB/2634.png"
        string_val: "AB/2635.png"
        string_val: "AB/2636.png"
        string_val: "AB/2637.png"
        string_val: "AB/2638.png"
        string_val: "AB/2639.png"
        string_val: "AB/2640.png"
        string_val: "AB/2641.png"
        string_val: "AB/2642.png"
        string_val: "AB/2643.png"
        string_val: "AB/2644.png"
        string_val: "AB/2645.png"
        string_val: "AB/2646.png"
        string_val: "AB/2647.png"
        string_val: "AB/2648.png"
        string_val: "AB/2649.png"
        string_val: "AB/2650.png"
        string_val: "AB/2651.png"
        string_val: "AB/2652.png"
        string_val: "AB/2653.png"
        string_val: "AB/2654.png"
        string_val: "AB/2655.png"
        string_val: "AB/2656.png"
        string_val: "AB/2657.png"
        string_val: "AB/2658.png"
        string_val: "AB/2659.png"
        string_val: "AB/2660.png"
        string_val: "AB/2661.png"
        string_val: "AB/2662.png"
        string_val: "AB/2663.png"
        string_val: "AB/2664.png"
        string_val: "AB/2665.png"
        string_val: "AB/2666.png"
        string_val: "AB/2667.png"
        string_val: "AB/2668.png"
        string_val: "AB/2669.png"
        string_val: "AB/2670.png"
        string_val: "AB/2671.png"
        string_val: "AB/2672.png"
        string_val: "AB/2673.png"
        string_val: "AB/2674.png"
        string_val: "AB/2675.png"
        string_val: "AB/2676.png"
        string_val: "AB/2677.png"
        string_val: "AB/2678.png"
        string_val: "AB/2679.png"
        string_val: "AB/2680.png"
        string_val: "AB/2681.png"
        string_val: "AB/2682.png"
        string_val: "AB/2683.png"
        string_val: "AB/2684.png"
        string_val: "AB/2685.png"
        string_val: "AB/2686.png"
        string_val: "AB/2687.png"
        string_val: "AB/2688.png"
        string_val: "AB/2689.png"
        string_val: "AB/2690.png"
        string_val: "AB/2691.png"
        string_val: "AB/2692.png"
        string_val: "AB/2693.png"
        string_val: "AB/2694.png"
        string_val: "AB/2695.png"
        string_val: "AB/2696.png"
        string_val: "AB/2697.png"
        string_val: "AB/2698.png"
        string_val: "AB/2699.png"
        string_val: "AB/2700.png"
        string_val: "AB/2701.png"
        string_val: "AB/2702.png"
        string_val: "AB/2703.png"
        string_val: "AB/2704.png"
        string_val: "AB/2705.png"
        string_val: "AB/2706.png"
        string_val: "AB/2707.png"
        string_val: "AB/2708.png"
        string_val: "AB/2709.png"
        string_val: "AB/2710.png"
        string_val: "AB/2711.png"
        string_val: "AB/2712.png"
        string_val: "AB/2713.png"
        string_val: "AB/2714.png"
        string_val: "AB/2715.png"
        string_val: "AB/2716.png"
        string_val: "AB/2717.png"
        string_val: "AB/2718.png"
        string_val: "AB/2719.png"
        string_val: "AB/2720.png"
        string_val: "AB/2721.png"
        string_val: "AB/2722.png"
        string_val: "AB/2723.png"
        string_val: "AB/2724.png"
        string_val: "AB/2725.png"
        string_val: "AB/2726.png"
        string_val: "AB/2727.png"
        string_val: "AB/2728.png"
        string_val: "AB/2729.png"
        string_val: "AB/2730.png"
        string_val: "AB/2731.png"
        string_val: "AB/2732.png"
        string_val: "AB/2733.png"
        string_val: "AB/2734.png"
        string_val: "AB/2735.png"
        string_val: "AB/2736.png"
        string_val: "AB/2737.png"
        string_val: "AB/2738.png"
        string_val: "AB/2739.png"
        string_val: "AB/2740.png"
        string_val: "AB/2741.png"
        string_val: "AB/2742.png"
        string_val: "AB/2743.png"
        string_val: "AB/2744.png"
        string_val: "AB/2745.png"
        string_val: "AB/2746.png"
        string_val: "AB/2747.png"
        string_val: "AB/2748.png"
        string_val: "AB/2749.png"
        string_val: "AB/2750.png"
        string_val: "AB/2751.png"
        string_val: "AB/2752.png"
        string_val: "AB/2753.png"
        string_val: "AB/2754.png"
        string_val: "AB/2755.png"
        string_val: "AB/2756.png"
        string_val: "AB/2757.png"
        string_val: "AB/2758.png"
        string_val: "AB/2759.png"
        string_val: "AB/2760.png"
        string_val: "AB/2761.png"
        string_val: "AB/2762.png"
        string_val: "AB/2763.png"
        string_val: "AB/2764.png"
        string_val: "AB/2765.png"
        string_val: "AB/2766.png"
        string_val: "AB/2767.png"
        string_val: "AB/2768.png"
        string_val: "AB/2769.png"
        string_val: "AB/2770.png"
        string_val: "AB/2771.png"
        string_val: "AB/2772.png"
        string_val: "AB/2773.png"
        string_val: "AB/2774.png"
        string_val: "AB/2775.png"
        string_val: "AB/2776.png"
        string_val: "AB/2777.png"
        string_val: "AB/2778.png"
        string_val: "AB/2779.png"
        string_val: "AB/2780.png"
        string_val: "AB/2781.png"
        string_val: "AB/2782.png"
        string_val: "AB/2783.png"
        string_val: "AB/2784.png"
        string_val: "AB/2785.png"
        string_val: "AB/2786.png"
        string_val: "AB/2787.png"
        string_val: "AB/2788.png"
        string_val: "AB/2789.png"
        string_val: "AB/2790.png"
        string_val: "AB/2791.png"
        string_val: "AB/2792.png"
        string_val: "AB/2793.png"
        string_val: "AB/2794.png"
        string_val: "AB/2795.png"
        string_val: "AB/2796.png"
        string_val: "AB/2797.png"
        string_val: "AB/2798.png"
        string_val: "AB/2799.png"
        string_val: "AB/2800.png"
        string_val: "AB/2801.png"
        string_val: "AB/2802.png"
        string_val: "AB/2803.png"
        string_val: "AB/2804.png"
        string_val: "AB/2805.png"
        string_val: "AB/2806.png"
        string_val: "AB/2807.png"
        string_val: "AB/2808.png"
        string_val: "AB/2809.png"
        string_val: "AB/2810.png"
        string_val: "AB/2811.png"
        string_val: "AB/2812.png"
        string_val: "AB/2813.png"
        string_val: "AB/2814.png"
        string_val: "AB/2815.png"
        string_val: "AB/2816.png"
        string_val: "AB/2817.png"
        string_val: "AB/2818.png"
        string_val: "AB/2819.png"
        string_val: "AB/2820.png"
        string_val: "AB/2821.png"
        string_val: "AB/2822.png"
        string_val: "AB/2823.png"
        string_val: "AB/2824.png"
        string_val: "AB/2825.png"
        string_val: "AB/2826.png"
        string_val: "AB/2827.png"
        string_val: "AB/2828.png"
        string_val: "AB/2829.png"
        string_val: "AB/2830.png"
        string_val: "AB/2831.png"
        string_val: "AB/2832.png"
        string_val: "AB/2833.png"
        string_val: "AB/2834.png"
        string_val: "AB/2835.png"
        string_val: "AB/2836.png"
        string_val: "AB/2837.png"
        string_val: "AB/2838.png"
        string_val: "AB/2839.png"
        string_val: "AB/2840.png"
        string_val: "AB/2841.png"
        string_val: "AB/2842.png"
        string_val: "AB/2843.png"
        string_val: "AB/2844.png"
        string_val: "AB/2845.png"
        string_val: "AB/2846.png"
        string_val: "AB/2847.png"
        string_val: "AB/2848.png"
        string_val: "AB/2849.png"
        string_val: "AB/2850.png"
        string_val: "AB/2851.png"
        string_val: "AB/2852.png"
        string_val: "AB/2853.png"
        string_val: "AB/2854.png"
        string_val: "AB/2855.png"
        string_val: "AB/2856.png"
        string_val: "AB/2857.png"
        string_val: "AB/2858.png"
        string_val: "AB/2859.png"
        string_val: "AB/2860.png"
        string_val: "AB/2861.png"
        string_val: "AB/2862.png"
        string_val: "AB/2863.png"
        string_val: "AB/2864.png"
        string_val: "AB/2865.png"
        string_val: "AB/2866.png"
        string_val: "AB/2867.png"
        string_val: "AB/2868.png"
        string_val: "AB/2869.png"
        string_val: "AB/2870.png"
        string_val: "AB/2871.png"
        string_val: "AB/2872.png"
        string_val: "AB/2873.png"
        string_val: "AB/2874.png"
        string_val: "AB/2875.png"
        string_val: "AB/2876.png"
        string_val: "AB/2877.png"
        string_val: "AB/2878.png"
        string_val: "AB/2879.png"
        string_val: "AB/2880.png"
        string_val: "AB/2881.png"
        string_val: "AB/2882.png"
        string_val: "AB/2883.png"
        string_val: "AB/2884.png"
        string_val: "AB/2885.png"
        string_val: "AB/2886.png"
        string_val: "AB/2887.png"
        string_val: "AB/2888.png"
        string_val: "AB/2889.png"
        string_val: "AB/2890.png"
        string_val: "AB/2891.png"
        string_val: "AB/2892.png"
        string_val: "AB/2893.png"
        string_val: "AB/2894.png"
        string_val: "AB/2895.png"
        string_val: "AB/2896.png"
        string_val: "AB/2897.png"
        string_val: "AB/2898.png"
        string_val: "AB/2899.png"
        string_val: "AB/2900.png"
        string_val: "AB/2901.png"
        string_val: "AB/2902.png"
        string_val: "AB/2903.png"
        string_val: "AB/2904.png"
        string_val: "AB/2905.png"
        string_val: "AB/2906.png"
        string_val: "AB/2907.png"
        string_val: "AB/2908.png"
        string_val: "AB/2909.png"
        string_val: "AB/2910.png"
        string_val: "AB/2911.png"
        string_val: "AB/2912.png"
        string_val: "AB/2913.png"
        string_val: "AB/2914.png"
        string_val: "AB/2915.png"
        string_val: "AB/2916.png"
        string_val: "AB/2917.png"
        string_val: "AB/2918.png"
        string_val: "AB/2919.png"
        string_val: "AB/2920.png"
        string_val: "AB/2921.png"
        string_val: "AB/2922.png"
        string_val: "AB/2923.png"
        string_val: "AB/2924.png"
        string_val: "AB/2925.png"
        string_val: "AB/2926.png"
        string_val: "AB/2927.png"
        string_val: "AB/2928.png"
        string_val: "AB/2929.png"
        string_val: "AB/2930.png"
        string_val: "AB/2931.png"
        string_val: "AB/2932.png"
        string_val: "AB/2933.png"
        string_val: "AB/2934.png"
        string_val: "AB/2935.png"
        string_val: "AB/2936.png"
        string_val: "AB/2937.png"
        string_val: "AB/2938.png"
        string_val: "AB/2939.png"
        string_val: "AB/2940.png"
        string_val: "AB/2941.png"
        string_val: "AB/2942.png"
        string_val: "AB/2943.png"
        string_val: "AB/2944.png"
        string_val: "AB/2945.png"
        string_val: "AB/2946.png"
        string_val: "AB/2947.png"
        string_val: "AB/2948.png"
        string_val: "AB/2949.png"
        string_val: "AB/2950.png"
        string_val: "AB/2951.png"
        string_val: "AB/2952.png"
        string_val: "AB/2953.png"
        string_val: "AB/2954.png"
        string_val: "AB/2955.png"
        string_val: "AB/2956.png"
        string_val: "AB/2957.png"
        string_val: "AB/2958.png"
        string_val: "AB/2959.png"
        string_val: "AB/2960.png"
        string_val: "AB/2961.png"
        string_val: "AB/2962.png"
        string_val: "AB/2963.png"
        string_val: "AB/2964.png"
        string_val: "AB/2965.png"
        string_val: "AB/2966.png"
        string_val: "AB/2967.png"
        string_val: "AB/2968.png"
        string_val: "AB/2969.png"
        string_val: "AB/2970.png"
        string_val: "AB/2971.png"
        string_val: "AB/2972.png"
        string_val: "AB/2973.png"
        string_val: "AB/2974.png"
        string_val: "AB/2975.png"
        string_val: "AB/2976.png"
        string_val: "AB/2977.png"
        string_val: "AB/2978.png"
        string_val: "AB/2979.png"
        string_val: "AB/2980.png"
        string_val: "AB/2981.png"
        string_val: "AB/2982.png"
        string_val: "AB/2983.png"
        string_val: "AB/2984.png"
        string_val: "AB/2985.png"
        string_val: "AB/2986.png"
        string_val: "AB/2987.png"
        string_val: "AB/2988.png"
        string_val: "AB/2989.png"
        string_val: "AB/2990.png"
        string_val: "AB/2991.png"
        string_val: "AB/2992.png"
        string_val: "AB/2993.png"
        string_val: "AB/2994.png"
        string_val: "AB/2995.png"
        string_val: "AB/2996.png"
        string_val: "AB/2997.png"
        string_val: "AB/2998.png"
        string_val: "AB/2999.png"
        string_val: "AB/3000.png"
        string_val: "AB/3001.png"
        string_val: "AB/3002.png"
        string_val: "AB/3003.png"
        string_val: "AB/3004.png"
        string_val: "AB/3005.png"
        string_val: "AB/3006.png"
        string_val: "AB/3007.png"
        string_val: "AB/3008.png"
        string_val: "AB/3009.png"
        string_val: "AB/3010.png"
        string_val: "AB/3011.png"
        string_val: "AB/3012.png"
        string_val: "AB/3013.png"
        string_val: "AB/3014.png"
        string_val: "AB/3015.png"
        string_val: "AB/3016.png"
        string_val: "AB/3017.png"
        string_val: "AB/3018.png"
        string_val: "AB/3019.png"
        string_val: "AB/3020.png"
        string_val: "AB/3021.png"
        string_val: "AB/3022.png"
        string_val: "AB/3023.png"
        string_val: "AB/3024.png"
        string_val: "AB/3025.png"
        string_val: "AB/3026.png"
        string_val: "AB/3027.png"
        string_val: "AB/3028.png"
        string_val: "AB/3029.png"
        string_val: "AB/3030.png"
        string_val: "AB/3031.png"
        string_val: "AB/3032.png"
        string_val: "AB/3033.png"
        string_val: "AB/3034.png"
        string_val: "AB/3035.png"
        string_val: "AB/3036.png"
        string_val: "AB/3037.png"
        string_val: "AB/3038.png"
        string_val: "AB/3039.png"
        string_val: "AB/3040.png"
        string_val: "AB/3041.png"
        string_val: "AB/3042.png"
        string_val: "AB/3043.png"
        string_val: "AB/3044.png"
        string_val: "AB/3045.png"
        string_val: "AB/3046.png"
        string_val: "AB/3047.png"
        string_val: "AB/3048.png"
        string_val: "AB/3049.png"
        string_val: "AB/3050.png"
        string_val: "AB/3051.png"
        string_val: "AB/3052.png"
        string_val: "AB/3053.png"
        string_val: "AB/3054.png"
        string_val: "AB/3055.png"
        string_val: "AB/3056.png"
        string_val: "AB/3057.png"
        string_val: "AB/3058.png"
        string_val: "AB/3059.png"
        string_val: "AB/3060.png"
        string_val: "AB/3061.png"
        string_val: "AB/3062.png"
        string_val: "AB/3063.png"
        string_val: "AB/3064.png"
        string_val: "AB/3065.png"
        string_val: "AB/3066.png"
        string_val: "AB/3067.png"
        string_val: "AB/3068.png"
        string_val: "AB/3069.png"
        string_val: "AB/3070.png"
        string_val: "AB/3071.png"
        string_val: "AB/3072.png"
        string_val: "AB/3073.png"
        string_val: "AB/3074.png"
        string_val: "AB/3075.png"
        string_val: "AB/3076.png"
        string_val: "AB/3077.png"
        string_val: "AB/3078.png"
        string_val: "AB/3079.png"
        string_val: "AB/3080.png"
        string_val: "AB/3081.png"
        string_val: "AB/3082.png"
        string_val: "AB/3083.png"
        string_val: "AB/3084.png"
        string_val: "AB/3085.png"
        string_val: "AB/3086.png"
        string_val: "AB/3087.png"
        string_val: "AB/3088.png"
        string_val: "AB/3089.png"
        string_val: "AB/3090.png"
        string_val: "AB/3091.png"
        string_val: "AB/3092.png"
        string_val: "AB/3093.png"
        string_val: "AB/3094.png"
        string_val: "AB/3095.png"
        string_val: "AB/3096.png"
        string_val: "AB/3097.png"
        string_val: "AB/3098.png"
        string_val: "AB/3099.png"
        string_val: "AB/3100.png"
        string_val: "AB/3101.png"
        string_val: "AB/3102.png"
        string_val: "AB/3103.png"
        string_val: "AB/3104.png"
        string_val: "AB/3105.png"
        string_val: "AB/3106.png"
        string_val: "AB/3107.png"
        string_val: "AB/3108.png"
        string_val: "AB/3109.png"
        string_val: "AB/3110.png"
        string_val: "AB/3111.png"
        string_val: "AB/3112.png"
        string_val: "AB/3113.png"
        string_val: "AB/3114.png"
        string_val: "AB/3115.png"
        string_val: "AB/3116.png"
        string_val: "AB/3117.png"
        string_val: "AB/3118.png"
        string_val: "AB/3119.png"
        string_val: "AB/3120.png"
        string_val: "AB/3121.png"
        string_val: "AB/3122.png"
        string_val: "AB/3123.png"
        string_val: "AB/3124.png"
        string_val: "AB/3125.png"
        string_val: "AB/3126.png"
        string_val: "AB/3127.png"
        string_val: "AB/3128.png"
        string_val: "AB/3129.png"
        string_val: "AB/3130.png"
        string_val: "AB/3131.png"
        string_val: "AB/3132.png"
        string_val: "AB/3133.png"
        string_val: "AB/3134.png"
        string_val: "AB/3135.png"
        string_val: "AB/3136.png"
        string_val: "AB/3137.png"
        string_val: "AB/3138.png"
        string_val: "AB/3139.png"
        string_val: "AB/3140.png"
        string_val: "AB/3141.png"
        string_val: "AB/3142.png"
        string_val: "AB/3143.png"
        string_val: "AB/3144.png"
        string_val: "AB/3145.png"
        string_val: "AB/3146.png"
        string_val: "AB/3147.png"
        string_val: "AB/3148.png"
        string_val: "AB/3149.png"
        string_val: "AB/3150.png"
        string_val: "AB/3151.png"
        string_val: "AB/3152.png"
        string_val: "AB/3153.png"
        string_val: "AB/3154.png"
        string_val: "AB/3155.png"
        string_val: "AB/3156.png"
        string_val: "AB/3157.png"
        string_val: "AB/3158.png"
        string_val: "AB/3159.png"
        string_val: "AB/3160.png"
        string_val: "AB/3161.png"
        string_val: "AB/3162.png"
        string_val: "AB/3163.png"
        string_val: "AB/3164.png"
        string_val: "AB/3165.png"
        string_val: "AB/3166.png"
        string_val: "AB/3167.png"
        string_val: "AB/3168.png"
        string_val: "AB/3169.png"
        string_val: "AB/3170.png"
        string_val: "AB/3171.png"
        string_val: "AB/3172.png"
        string_val: "AB/3173.png"
        string_val: "AB/3174.png"
        string_val: "AB/3175.png"
        string_val: "AB/3176.png"
        string_val: "AB/3177.png"
        string_val: "AB/3178.png"
        string_val: "AB/3179.png"
        string_val: "AB/3180.png"
        string_val: "AB/3181.png"
        string_val: "AB/3182.png"
        string_val: "AB/3183.png"
        string_val: "AB/3184.png"
        string_val: "AB/3185.png"
        string_val: "AB/3186.png"
        string_val: "AB/3187.png"
        string_val: "AB/3188.png"
        string_val: "AB/3189.png"
        string_val: "AB/3190.png"
        string_val: "AB/3191.png"
        string_val: "AB/3192.png"
        string_val: "AB/3193.png"
        string_val: "AB/3194.png"
        string_val: "AB/3195.png"
        string_val: "AB/3196.png"
        string_val: "AB/3197.png"
        string_val: "AB/3198.png"
        string_val: "AB/3199.png"
        string_val: "AB/3200.png"
        string_val: "AB/3201.png"
        string_val: "AB/3202.png"
        string_val: "AB/3203.png"
        string_val: "AB/3204.png"
        string_val: "AB/3205.png"
        string_val: "AB/3206.png"
        string_val: "AB/3207.png"
        string_val: "AB/3208.png"
        string_val: "AB/3209.png"
        string_val: "AB/3210.png"
        string_val: "AB/3211.png"
        string_val: "AB/3212.png"
        string_val: "AB/3213.png"
        string_val: "AB/3214.png"
        string_val: "AB/3215.png"
        string_val: "AB/3216.png"
        string_val: "AB/3217.png"
        string_val: "AB/3218.png"
        string_val: "AB/3219.png"
        string_val: "AB/3220.png"
        string_val: "AB/3221.png"
        string_val: "AB/3222.png"
        string_val: "AB/3223.png"
        string_val: "AB/3224.png"
        string_val: "AB/3225.png"
        string_val: "AB/3226.png"
        string_val: "AB/3227.png"
        string_val: "AB/3228.png"
        string_val: "AB/3229.png"
        string_val: "AB/3230.png"
        string_val: "AB/3231.png"
        string_val: "AB/3232.png"
        string_val: "AB/3233.png"
        string_val: "AB/3234.png"
        string_val: "AB/3235.png"
        string_val: "AB/3236.png"
        string_val: "AB/3237.png"
        string_val: "AB/3238.png"
        string_val: "AB/3239.png"
        string_val: "AB/3240.png"
        string_val: "AB/3241.png"
        string_val: "AB/3242.png"
        string_val: "AB/3243.png"
        string_val: "AB/3244.png"
        string_val: "AB/3245.png"
        string_val: "AB/3246.png"
        string_val: "AB/3247.png"
        string_val: "AB/3248.png"
        string_val: "AB/3249.png"
        string_val: "AB/3250.png"
        string_val: "AB/3251.png"
        string_val: "AB/3252.png"
        string_val: "AB/3253.png"
        string_val: "AB/3254.png"
        string_val: "AB/3255.png"
        string_val: "AB/3256.png"
        string_val: "AB/3257.png"
        string_val: "AB/3258.png"
        string_val: "AB/3259.png"
        string_val: "AB/3260.png"
        string_val: "AB/3261.png"
        string_val: "AB/3262.png"
        string_val: "AB/3263.png"
        string_val: "AB/3264.png"
        string_val: "AB/3265.png"
        string_val: "AB/3266.png"
        string_val: "AB/3267.png"
        string_val: "AB/3268.png"
        string_val: "AB/3269.png"
        string_val: "AB/3270.png"
        string_val: "AB/3271.png"
        string_val: "AB/3272.png"
        string_val: "AB/3273.png"
        string_val: "AB/3274.png"
        string_val: "AB/3275.png"
        string_val: "AB/3276.png"
        string_val: "AB/3277.png"
        string_val: "AB/3278.png"
        string_val: "AB/3279.png"
        string_val: "AB/3280.png"
        string_val: "AB/3281.png"
        string_val: "AB/3282.png"
        string_val: "AB/3283.png"
        string_val: "AB/3284.png"
        string_val: "AB/3285.png"
        string_val: "AB/3286.png"
        string_val: "AB/3287.png"
        string_val: "AB/3288.png"
        string_val: "AB/3289.png"
        string_val: "AB/3290.png"
        string_val: "AB/3291.png"
        string_val: "AB/3292.png"
        string_val: "AB/3293.png"
        string_val: "AB/3294.png"
        string_val: "AB/3295.png"
        string_val: "AB/3296.png"
        string_val: "AB/3297.png"
        string_val: "AB/3298.png"
        string_val: "AB/3299.png"
        string_val: "AB/3300.png"
        string_val: "AB/3301.png"
        string_val: "AB/3302.png"
        string_val: "AB/3303.png"
        string_val: "AB/3304.png"
        string_val: "AB/3305.png"
        string_val: "AB/3306.png"
        string_val: "AB/3307.png"
        string_val: "AB/3308.png"
        string_val: "AB/3309.png"
        string_val: "AB/3310.png"
        string_val: "AB/3311.png"
        string_val: "AB/3312.png"
        string_val: "AB/3313.png"
        string_val: "AB/3314.png"
        string_val: "AB/3315.png"
        string_val: "AB/3316.png"
        string_val: "AB/3317.png"
        string_val: "AB/3318.png"
        string_val: "AB/3319.png"
        string_val: "AB/3320.png"
        string_val: "AB/3321.png"
        string_val: "AB/3322.png"
        string_val: "AB/3323.png"
        string_val: "AB/3324.png"
        string_val: "AB/3325.png"
        string_val: "AB/3326.png"
        string_val: "AB/3327.png"
        string_val: "AB/3328.png"
        string_val: "AB/3329.png"
        string_val: "AB/3330.png"
        string_val: "AB/3331.png"
        string_val: "AB/3332.png"
        string_val: "AB/3333.png"
        string_val: "AB/3334.png"
        string_val: "AB/3335.png"
        string_val: "AB/3336.png"
        string_val: "AB/3337.png"
        string_val: "AB/3338.png"
        string_val: "AB/3339.png"
        string_val: "AB/3340.png"
        string_val: "AB/3341.png"
        string_val: "AB/3342.png"
        string_val: "AB/3343.png"
        string_val: "AB/3344.png"
        string_val: "AB/3345.png"
        string_val: "AB/3346.png"
        string_val: "AB/3347.png"
        string_val: "AB/3348.png"
        string_val: "AB/3349.png"
        string_val: "AB/3350.png"
        string_val: "AB/3351.png"
        string_val: "AB/3352.png"
        string_val: "AB/3353.png"
        string_val: "AB/3354.png"
        string_val: "AB/3355.png"
        string_val: "AB/3356.png"
        string_val: "AB/3357.png"
        string_val: "AB/3358.png"
        string_val: "AB/3359.png"
        string_val: "AB/3360.png"
        string_val: "AB/3361.png"
        string_val: "AB/3362.png"
        string_val: "AB/3363.png"
        string_val: "AB/3364.png"
        string_val: "AB/3365.png"
        string_val: "AB/3366.png"
        string_val: "AB/3367.png"
        string_val: "AB/3368.png"
        string_val: "AB/3369.png"
        string_val: "AB/3370.png"
        string_val: "AB/3371.png"
        string_val: "AB/3372.png"
        string_val: "AB/3373.png"
        string_val: "AB/3374.png"
        string_val: "AB/3375.png"
        string_val: "AB/3376.png"
        string_val: "AB/3377.png"
        string_val: "AB/3378.png"
        string_val: "AB/3379.png"
        string_val: "AB/3380.png"
        string_val: "AB/3381.png"
        string_val: "AB/3382.png"
        string_val: "AB/3383.png"
        string_val: "AB/3384.png"
        string_val: "AB/3385.png"
        string_val: "AB/3386.png"
        string_val: "AB/3387.png"
        string_val: "AB/3388.png"
        string_val: "AB/3389.png"
        string_val: "AB/3390.png"
        string_val: "AB/3391.png"
        string_val: "AB/3392.png"
        string_val: "AB/3393.png"
        string_val: "AB/3394.png"
        string_val: "AB/3395.png"
        string_val: "AB/3396.png"
        string_val: "AB/3397.png"
        string_val: "AB/3398.png"
        string_val: "AB/3399.png"
        string_val: "AB/3400.png"
        string_val: "AB/3401.png"
        string_val: "AB/3402.png"
        string_val: "AB/3403.png"
        string_val: "AB/3404.png"
        string_val: "AB/3405.png"
        string_val: "AB/3406.png"
        string_val: "AB/3407.png"
        string_val: "AB/3408.png"
        string_val: "AB/3409.png"
        string_val: "AB/3410.png"
        string_val: "AB/3411.png"
        string_val: "AB/3412.png"
        string_val: "AB/3413.png"
        string_val: "AB/3414.png"
        string_val: "AB/3415.png"
        string_val: "AB/3416.png"
        string_val: "AB/3417.png"
        string_val: "AB/3418.png"
        string_val: "AB/3419.png"
        string_val: "AB/3420.png"
        string_val: "AB/3421.png"
        string_val: "AB/3422.png"
        string_val: "AB/3423.png"
        string_val: "AB/3424.png"
        string_val: "AB/3425.png"
        string_val: "AB/3426.png"
        string_val: "AB/3427.png"
        string_val: "AB/3428.png"
        string_val: "AB/3429.png"
        string_val: "AB/3430.png"
        string_val: "AB/3431.png"
        string_val: "AB/3432.png"
        string_val: "AB/3433.png"
        string_val: "AB/3434.png"
        string_val: "AB/3435.png"
        string_val: "AB/3436.png"
        string_val: "AB/3437.png"
        string_val: "AB/3438.png"
        string_val: "AB/3439.png"
        string_val: "AB/3440.png"
        string_val: "AB/3441.png"
        string_val: "AB/3442.png"
        string_val: "AB/3443.png"
        string_val: "AB/3444.png"
        string_val: "AB/3445.png"
        string_val: "AB/3446.png"
        string_val: "AB/3447.png"
        string_val: "AB/3448.png"
        string_val: "AB/3449.png"
        string_val: "AB/3450.png"
        string_val: "AB/3451.png"
        string_val: "AB/3452.png"
        string_val: "AB/3453.png"
        string_val: "AB/3454.png"
        string_val: "AB/3455.png"
        string_val: "AB/3456.png"
        string_val: "AB/3457.png"
        string_val: "AB/3458.png"
        string_val: "AB/3459.png"
        string_val: "AB/3460.png"
        string_val: "AB/3461.png"
        string_val: "AB/3462.png"
        string_val: "AB/3463.png"
        string_val: "AB/3464.png"
        string_val: "AB/3465.png"
        string_val: "AB/3466.png"
        string_val: "AB/3467.png"
        string_val: "AB/3468.png"
        string_val: "AB/3469.png"
        string_val: "AB/3470.png"
        string_val: "AB/3471.png"
        string_val: "AB/3472.png"
        string_val: "AB/3473.png"
        string_val: "AB/3474.png"
        string_val: "AB/3475.png"
        string_val: "AB/3476.png"
        string_val: "AB/3477.png"
        string_val: "AB/3478.png"
        string_val: "AB/3479.png"
        string_val: "AB/3480.png"
        string_val: "AB/3481.png"
        string_val: "AB/3482.png"
        string_val: "AB/3483.png"
        string_val: "AB/3484.png"
        string_val: "AB/3485.png"
        string_val: "AB/3486.png"
        string_val: "AB/3487.png"
        string_val: "AB/3488.png"
        string_val: "AB/3489.png"
        string_val: "AB/3490.png"
        string_val: "AB/3491.png"
        string_val: "AB/3492.png"
        string_val: "AB/3493.png"
        string_val: "AB/3494.png"
        string_val: "AB/3495.png"
        string_val: "AB/3496.png"
        string_val: "AB/3497.png"
        string_val: "AB/3498.png"
        string_val: "AB/3499.png"
        string_val: "AB/3500.png"
        string_val: "AB/3501.png"
        string_val: "AB/3502.png"
        string_val: "AB/3503.png"
        string_val: "AB/3504.png"
        string_val: "AB/3505.png"
        string_val: "AB/3506.png"
        string_val: "AB/3507.png"
        string_val: "AB/3508.png"
        string_val: "AB/3509.png"
        string_val: "AB/3510.png"
        string_val: "AB/3511.png"
        string_val: "AB/3512.png"
        string_val: "AB/3513.png"
        string_val: "AB/3514.png"
        string_val: "AB/3515.png"
        string_val: "AB/3516.png"
        string_val: "AB/3517.png"
        string_val: "AB/3518.png"
        string_val: "AB/3519.png"
        string_val: "AB/3520.png"
        string_val: "AB/3521.png"
        string_val: "AB/3522.png"
        string_val: "AB/3523.png"
        string_val: "AB/3524.png"
        string_val: "AB/3525.png"
        string_val: "AB/3526.png"
        string_val: "AB/3527.png"
        string_val: "AB/3528.png"
        string_val: "AB/3529.png"
        string_val: "AB/3530.png"
        string_val: "AB/3531.png"
        string_val: "AB/3532.png"
        string_val: "AB/3533.png"
        string_val: "AB/3534.png"
        string_val: "AB/3535.png"
        string_val: "AB/3536.png"
        string_val: "AB/3537.png"
        string_val: "AB/3538.png"
        string_val: "AB/3539.png"
        string_val: "AB/3540.png"
        string_val: "AB/3541.png"
        string_val: "AB/3542.png"
        string_val: "AB/3543.png"
        string_val: "AB/3544.png"
        string_val: "AB/3545.png"
        string_val: "AB/3546.png"
        string_val: "AB/3547.png"
        string_val: "AB/3548.png"
        string_val: "AB/3549.png"
        string_val: "AB/3550.png"
        string_val: "AB/3551.png"
        string_val: "AB/3552.png"
        string_val: "AB/3553.png"
        string_val: "AB/3554.png"
        string_val: "AB/3555.png"
        string_val: "AB/3556.png"
        string_val: "AB/3557.png"
        string_val: "AB/3558.png"
        string_val: "AB/3559.png"
        string_val: "AB/3560.png"
        string_val: "AB/3561.png"
        string_val: "AB/3562.png"
        string_val: "AB/3563.png"
        string_val: "AB/3564.png"
        string_val: "AB/3565.png"
        string_val: "AB/3566.png"
        string_val: "AB/3567.png"
        string_val: "AB/3568.png"
        string_val: "AB/3569.png"
        string_val: "AB/3570.png"
        string_val: "AB/3571.png"
        string_val: "AB/3572.png"
        string_val: "AB/3573.png"
        string_val: "AB/3574.png"
        string_val: "AB/3575.png"
        string_val: "AB/3576.png"
        string_val: "AB/3577.png"
        string_val: "AB/3578.png"
        string_val: "AB/3579.png"
        string_val: "AB/3580.png"
        string_val: "AB/3581.png"
        string_val: "AB/3582.png"
        string_val: "AB/3583.png"
        string_val: "AB/3584.png"
        string_val: "AB/3585.png"
        string_val: "AB/3586.png"
        string_val: "AB/3587.png"
        string_val: "AB/3588.png"
        string_val: "AB/3589.png"
        string_val: "AB/3590.png"
        string_val: "AB/3591.png"
        string_val: "AB/3592.png"
        string_val: "AB/3593.png"
        string_val: "AB/3594.png"
        string_val: "AB/3595.png"
        string_val: "AB/3596.png"
        string_val: "AB/3597.png"
        string_val: "AB/3598.png"
        string_val: "AB/3599.png"
        string_val: "AB/3600.png"
        string_val: "AB/3601.png"
        string_val: "AB/3602.png"
        string_val: "AB/3603.png"
        string_val: "AB/3604.png"
        string_val: "AB/3605.png"
        string_val: "AB/3606.png"
        string_val: "AB/3607.png"
        string_val: "AB/3608.png"
        string_val: "AB/3609.png"
        string_val: "AB/3610.png"
        string_val: "AB/3611.png"
        string_val: "AB/3612.png"
        string_val: "AB/3613.png"
        string_val: "AB/3614.png"
        string_val: "AB/3615.png"
        string_val: "AB/3616.png"
        string_val: "AB/3617.png"
        string_val: "AB/3618.png"
        string_val: "AB/3619.png"
        string_val: "AB/3620.png"
        string_val: "AB/3621.png"
        string_val: "AB/3622.png"
        string_val: "AB/3623.png"
        string_val: "AB/3624.png"
        string_val: "AB/3625.png"
        string_val: "AB/3626.png"
        string_val: "AB/3627.png"
        string_val: "AB/3628.png"
        string_val: "AB/3629.png"
        string_val: "AB/3630.png"
        string_val: "AB/3631.png"
        string_val: "AB/3632.png"
        string_val: "AB/3633.png"
        string_val: "AB/3634.png"
        string_val: "AB/3635.png"
        string_val: "AB/3636.png"
        string_val: "AB/3637.png"
        string_val: "AB/3638.png"
        string_val: "AB/3639.png"
        string_val: "AB/3640.png"
        string_val: "AB/3641.png"
        string_val: "AB/3642.png"
        string_val: "AB/3643.png"
        string_val: "AB/3644.png"
        string_val: "AB/3645.png"
        string_val: "AB/3646.png"
        string_val: "AB/3647.png"
        string_val: "AB/3648.png"
        string_val: "AB/3649.png"
        string_val: "AB/3650.png"
        string_val: "AB/3651.png"
        string_val: "AB/3652.png"
        string_val: "AB/3653.png"
        string_val: "AB/3654.png"
        string_val: "AB/3655.png"
        string_val: "AB/3656.png"
        string_val: "AB/3657.png"
        string_val: "AB/3658.png"
        string_val: "AB/3659.png"
        string_val: "AB/3660.png"
        string_val: "AB/3661.png"
        string_val: "AB/3662.png"
        string_val: "AB/3663.png"
        string_val: "AB/3664.png"
        string_val: "AB/3665.png"
        string_val: "AB/3666.png"
        string_val: "AB/3667.png"
        string_val: "AB/3668.png"
        string_val: "AB/3669.png"
        string_val: "AB/3670.png"
        string_val: "AB/3671.png"
        string_val: "AB/3672.png"
        string_val: "AB/3673.png"
        string_val: "AB/3674.png"
        string_val: "AB/3675.png"
        string_val: "AB/3676.png"
        string_val: "AB/3677.png"
        string_val: "AB/3678.png"
        string_val: "AB/3679.png"
        string_val: "AB/3680.png"
        string_val: "AB/3681.png"
        string_val: "AB/3682.png"
        string_val: "AB/3683.png"
        string_val: "AB/3684.png"
        string_val: "AB/3685.png"
        string_val: "AB/3686.png"
        string_val: "AB/3687.png"
        string_val: "AB/3688.png"
        string_val: "AB/3689.png"
        string_val: "AB/3690.png"
        string_val: "AB/3691.png"
        string_val: "AB/3692.png"
        string_val: "AB/3693.png"
        string_val: "AB/3694.png"
        string_val: "AB/3695.png"
        string_val: "AB/3696.png"
        string_val: "AB/3697.png"
        string_val: "AB/3698.png"
        string_val: "AB/3699.png"
        string_val: "AB/3700.png"
        string_val: "AB/3701.png"
        string_val: "AB/3702.png"
        string_val: "AB/3703.png"
        string_val: "AB/3704.png"
        string_val: "AB/3705.png"
        string_val: "AB/3706.png"
        string_val: "AB/3707.png"
        string_val: "AB/3708.png"
        string_val: "AB/3709.png"
        string_val: "AB/3710.png"
        string_val: "AB/3711.png"
        string_val: "AB/3712.png"
        string_val: "AB/3713.png"
        string_val: "AB/3714.png"
        string_val: "AB/3715.png"
        string_val: "AB/3716.png"
        string_val: "AB/3717.png"
        string_val: "AB/3718.png"
        string_val: "AB/3719.png"
        string_val: "AB/3720.png"
        string_val: "AB/3721.png"
        string_val: "AB/3722.png"
        string_val: "AB/3723.png"
        string_val: "AB/3724.png"
        string_val: "AB/3725.png"
        string_val: "AB/3726.png"
        string_val: "AB/3727.png"
        string_val: "AB/3728.png"
        string_val: "AB/3729.png"
        string_val: "AB/3730.png"
        string_val: "AB/3731.png"
        string_val: "AB/3732.png"
        string_val: "AB/3733.png"
        string_val: "AB/3734.png"
        string_val: "AB/3735.png"
        string_val: "AB/3736.png"
        string_val: "AB/3737.png"
        string_val: "AB/3738.png"
        string_val: "AB/3739.png"
        string_val: "AB/3740.png"
        string_val: "AB/3741.png"
        string_val: "AB/3742.png"
        string_val: "AB/3743.png"
        string_val: "AB/3744.png"
        string_val: "AB/3745.png"
        string_val: "AB/3746.png"
        string_val: "AB/3747.png"
        string_val: "AB/3748.png"
        string_val: "AB/3749.png"
        string_val: "AB/3750.png"
        string_val: "AB/3751.png"
        string_val: "AB/3752.png"
        string_val: "AB/3753.png"
        string_val: "AB/3754.png"
        string_val: "AB/3755.png"
        string_val: "AB/3756.png"
        string_val: "AB/3757.png"
        string_val: "AB/3758.png"
        string_val: "AB/3759.png"
        string_val: "AB/3760.png"
        string_val: "AB/3761.png"
        string_val: "AB/3762.png"
        string_val: "AB/3763.png"
        string_val: "AB/3764.png"
        string_val: "AB/3765.png"
        string_val: "AB/3766.png"
        string_val: "AB/3767.png"
        string_val: "AB/3768.png"
        string_val: "AB/3769.png"
        string_val: "AB/3770.png"
        string_val: "AB/3771.png"
        string_val: "AB/3772.png"
        string_val: "AB/3773.png"
        string_val: "AB/3774.png"
        string_val: "AB/3775.png"
        string_val: "AB/3776.png"
        string_val: "AB/3777.png"
        string_val: "AB/3778.png"
        string_val: "AB/3779.png"
        string_val: "AB/3780.png"
        string_val: "AB/3781.png"
        string_val: "AB/3782.png"
        string_val: "AB/3783.png"
        string_val: "AB/3784.png"
        string_val: "AB/3785.png"
        string_val: "AB/3786.png"
        string_val: "AB/3787.png"
        string_val: "AB/3788.png"
        string_val: "AB/3789.png"
        string_val: "AB/3790.png"
        string_val: "AB/3791.png"
        string_val: "AB/3792.png"
        string_val: "AB/3793.png"
        string_val: "AB/3794.png"
        string_val: "AB/3795.png"
        string_val: "AB/3796.png"
        string_val: "AB/3797.png"
        string_val: "AB/3798.png"
        string_val: "AB/3799.png"
        string_val: "AB/3800.png"
        string_val: "AB/3801.png"
        string_val: "AB/3802.png"
        string_val: "AB/3803.png"
        string_val: "AB/3804.png"
        string_val: "AB/3805.png"
        string_val: "AB/3806.png"
        string_val: "AB/3807.png"
        string_val: "AB/3808.png"
        string_val: "AB/3809.png"
        string_val: "AB/3810.png"
        string_val: "AB/3811.png"
        string_val: "AB/3812.png"
        string_val: "AB/3813.png"
        string_val: "AB/3814.png"
        string_val: "AB/3815.png"
        string_val: "AB/3816.png"
        string_val: "AB/3817.png"
        string_val: "AB/3818.png"
        string_val: "AB/3819.png"
        string_val: "AB/3820.png"
        string_val: "AB/3821.png"
        string_val: "AB/3822.png"
        string_val: "AB/3823.png"
        string_val: "AB/3824.png"
        string_val: "AB/3825.png"
        string_val: "AB/3826.png"
        string_val: "AB/3827.png"
        string_val: "AB/3828.png"
        string_val: "AB/3829.png"
        string_val: "AB/3830.png"
        string_val: "AB/3831.png"
        string_val: "AB/3832.png"
        string_val: "AB/3833.png"
        string_val: "AB/3834.png"
        string_val: "AB/3835.png"
        string_val: "AB/3836.png"
        string_val: "AB/3837.png"
        string_val: "AB/3838.png"
        string_val: "AB/3839.png"
        string_val: "AB/3840.png"
        string_val: "AB/3841.png"
        string_val: "AB/3842.png"
        string_val: "AB/3843.png"
        string_val: "AB/3844.png"
        string_val: "AB/3845.png"
        string_val: "AB/3846.png"
        string_val: "AB/3847.png"
        string_val: "AB/3848.png"
        string_val: "AB/3849.png"
        string_val: "AB/3850.png"
        string_val: "AB/3851.png"
        string_val: "AB/3852.png"
        string_val: "AB/3853.png"
        string_val: "AB/3854.png"
        string_val: "AB/3855.png"
        string_val: "AB/3856.png"
        string_val: "AB/3857.png"
        string_val: "AB/3858.png"
        string_val: "AB/3859.png"
        string_val: "AB/3860.png"
        string_val: "AB/3861.png"
        string_val: "AB/3862.png"
        string_val: "AB/3863.png"
        string_val: "AB/3864.png"
        string_val: "AB/3865.png"
        string_val: "AB/3866.png"
        string_val: "AB/3867.png"
        string_val: "AB/3868.png"
        string_val: "AB/3869.png"
        string_val: "AB/3870.png"
        string_val: "AB/3871.png"
        string_val: "AB/3872.png"
        string_val: "AB/3873.png"
        string_val: "AB/3874.png"
        string_val: "AB/3875.png"
        string_val: "AB/3876.png"
        string_val: "AB/3877.png"
        string_val: "AB/3878.png"
        string_val: "AB/3879.png"
        string_val: "AB/3880.png"
        string_val: "AB/3881.png"
        string_val: "AB/3882.png"
        string_val: "AB/3883.png"
        string_val: "AB/3884.png"
        string_val: "AB/3885.png"
        string_val: "AB/3886.png"
        string_val: "AB/3887.png"
        string_val: "AB/3888.png"
        string_val: "AB/3889.png"
        string_val: "AB/3890.png"
        string_val: "AB/3891.png"
        string_val: "AB/3892.png"
        string_val: "AB/3893.png"
        string_val: "AB/3894.png"
        string_val: "AB/3895.png"
        string_val: "AB/3896.png"
        string_val: "AB/3897.png"
        string_val: "AB/3898.png"
        string_val: "AB/3899.png"
        string_val: "AB/3900.png"
        string_val: "AB/3901.png"
        string_val: "AB/3902.png"
        string_val: "AB/3903.png"
        string_val: "AB/3904.png"
        string_val: "AB/3905.png"
        string_val: "AB/3906.png"
        string_val: "AB/3907.png"
        string_val: "AB/3908.png"
        string_val: "AB/3909.png"
        string_val: "AB/3910.png"
        string_val: "AB/3911.png"
        string_val: "AB/3912.png"
        string_val: "AB/3913.png"
        string_val: "AB/3914.png"
        string_val: "AB/3915.png"
        string_val: "AB/3916.png"
        string_val: "AB/3917.png"
        string_val: "AB/3918.png"
        string_val: "AB/3919.png"
        string_val: "AB/3920.png"
        string_val: "AB/3921.png"
        string_val: "AB/3922.png"
        string_val: "AB/3923.png"
        string_val: "AB/3924.png"
        string_val: "AB/3925.png"
        string_val: "AB/3926.png"
        string_val: "AB/3927.png"
        string_val: "AB/3928.png"
        string_val: "AB/3929.png"
        string_val: "AB/3930.png"
        string_val: "AB/3931.png"
        string_val: "AB/3932.png"
        string_val: "AB/3933.png"
        string_val: "AB/3934.png"
        string_val: "AB/3935.png"
        string_val: "AB/3936.png"
        string_val: "AB/3937.png"
        string_val: "AB/3938.png"
        string_val: "AB/3939.png"
        string_val: "AB/3940.png"
        string_val: "AB/3941.png"
        string_val: "AB/3942.png"
        string_val: "AB/3943.png"
        string_val: "AB/3944.png"
        string_val: "AB/3945.png"
        string_val: "AB/3946.png"
        string_val: "AB/3947.png"
        string_val: "AB/3948.png"
        string_val: "AB/3949.png"
        string_val: "AB/3950.png"
        string_val: "AB/3951.png"
        string_val: "AB/3952.png"
        string_val: "AB/3953.png"
        string_val: "AB/3954.png"
        string_val: "AB/3955.png"
        string_val: "AB/3956.png"
        string_val: "AB/3957.png"
        string_val: "AB/3958.png"
        string_val: "AB/3959.png"
        string_val: "AB/3960.png"
        string_val: "AB/3961.png"
        string_val: "AB/3962.png"
        string_val: "AB/3963.png"
        string_val: "AB/3964.png"
        string_val: "AB/3965.png"
        string_val: "AB/3966.png"
        string_val: "AB/3967.png"
        string_val: "AB/3968.png"
        string_val: "AB/3969.png"
        string_val: "AB/3970.png"
        string_val: "AB/3971.png"
        string_val: "AB/3972.png"
        string_val: "AB/3973.png"
        string_val: "AB/3974.png"
        string_val: "AB/3975.png"
        string_val: "AB/3976.png"
        string_val: "AB/3977.png"
        string_val: "AB/3978.png"
        string_val: "AB/3979.png"
        string_val: "AB/3980.png"
        string_val: "AB/3981.png"
        string_val: "AB/3982.png"
        string_val: "AB/3983.png"
        string_val: "AB/3984.png"
        string_val: "AB/3985.png"
        string_val: "AB/3986.png"
        string_val: "AB/3987.png"
        string_val: "AB/3988.png"
        string_val: "AB/3989.png"
        string_val: "AB/3990.png"
        string_val: "AB/3991.png"
        string_val: "AB/3992.png"
        string_val: "AB/3993.png"
        string_val: "AB/3994.png"
        string_val: "AB/3995.png"
        string_val: "AB/3996.png"
        string_val: "AB/3997.png"
        string_val: "AB/3998.png"
        string_val: "AB/3999.png"
        string_val: "AB/4000.png"
        string_val: "AB/4001.png"
        string_val: "AB/4002.png"
        string_val: "AB/4003.png"
        string_val: "AB/4004.png"
        string_val: "AB/4005.png"
        string_val: "AB/4006.png"
        string_val: "AB/4007.png"
        string_val: "AB/4008.png"
        string_val: "AB/4009.png"
        string_val: "AB/4010.png"
        string_val: "AB/4011.png"
        string_val: "AB/4012.png"
        string_val: "AB/4013.png"
        string_val: "AB/4014.png"
        string_val: "AB/4015.png"
        string_val: "AB/4016.png"
        string_val: "AB/4017.png"
        string_val: "AB/4018.png"
        string_val: "AB/4019.png"
        string_val: "AB/4020.png"
        string_val: "AB/4021.png"
        string_val: "AB/4022.png"
        string_val: "AB/4023.png"
        string_val: "AB/4024.png"
        string_val: "AB/4025.png"
        string_val: "AB/4026.png"
        string_val: "AB/4027.png"
        string_val: "AB/4028.png"
        string_val: "AB/4029.png"
        string_val: "AB/4030.png"
        string_val: "AB/4031.png"
        string_val: "AB/4032.png"
        string_val: "AB/4033.png"
        string_val: "AB/4034.png"
        string_val: "AB/4035.png"
        string_val: "AB/4036.png"
        string_val: "AB/4037.png"
        string_val: "AB/4038.png"
        string_val: "AB/4039.png"
        string_val: "AB/4040.png"
        string_val: "AB/4041.png"
        string_val: "AB/4042.png"
        string_val: "AB/4043.png"
        string_val: "AB/4044.png"
        string_val: "AB/4045.png"
        string_val: "AB/4046.png"
        string_val: "AB/4047.png"
        string_val: "AB/4048.png"
        string_val: "AB/4049.png"
        string_val: "AB/4050.png"
        string_val: "AB/4051.png"
        string_val: "AB/4052.png"
        string_val: "AB/4053.png"
        string_val: "AB/4054.png"
        string_val: "AB/4055.png"
        string_val: "AB/4056.png"
        string_val: "AB/4057.png"
        string_val: "AB/4058.png"
        string_val: "AB/4059.png"
        string_val: "AB/4060.png"
        string_val: "AB/4061.png"
        string_val: "AB/4062.png"
        string_val: "AB/4063.png"
        string_val: "AB/4064.png"
        string_val: "AB/4065.png"
        string_val: "AB/4066.png"
        string_val: "AB/4067.png"
        string_val: "AB/4068.png"
        string_val: "AB/4069.png"
        string_val: "AB/4070.png"
        string_val: "AB/4071.png"
        string_val: "AB/4072.png"
        string_val: "AB/4073.png"
        string_val: "AB/4074.png"
        string_val: "AB/4075.png"
        string_val: "AB/4076.png"
        string_val: "AB/4077.png"
        string_val: "AB/4078.png"
        string_val: "AB/4079.png"
        string_val: "AB/4080.png"
        string_val: "AB/4081.png"
        string_val: "AB/4082.png"
        string_val: "AB/4083.png"
        string_val: "AB/4084.png"
        string_val: "AB/4085.png"
        string_val: "AB/4086.png"
        string_val: "AB/4087.png"
        string_val: "AB/4088.png"
        string_val: "AB/4089.png"
        string_val: "AB/4090.png"
        string_val: "AB/4091.png"
        string_val: "AB/4092.png"
        string_val: "AB/4093.png"
        string_val: "AB/4094.png"
        string_val: "AB/4095.png"
        string_val: "AB/4096.png"
        string_val: "AB/4097.png"
        string_val: "AB/4098.png"
        string_val: "AB/4099.png"
        string_val: "AB/4100.png"
        string_val: "AB/4101.png"
        string_val: "AB/4102.png"
        string_val: "AB/4103.png"
        string_val: "AB/4104.png"
        string_val: "AB/4105.png"
        string_val: "AB/4106.png"
        string_val: "AB/4107.png"
        string_val: "AB/4108.png"
        string_val: "AB/4109.png"
        string_val: "AB/4110.png"
        string_val: "AB/4111.png"
        string_val: "AB/4112.png"
        string_val: "AB/4113.png"
        string_val: "AB/4114.png"
        string_val: "AB/4115.png"
        string_val: "AB/4116.png"
        string_val: "AB/4117.png"
        string_val: "AB/4118.png"
        string_val: "AB/4119.png"
        string_val: "AB/4120.png"
        string_val: "AB/4121.png"
        string_val: "AB/4122.png"
        string_val: "AB/4123.png"
        string_val: "AB/4124.png"
        string_val: "AB/4125.png"
        string_val: "AB/4126.png"
        string_val: "AB/4127.png"
        string_val: "AB/4128.png"
        string_val: "AB/4129.png"
        string_val: "AB/4130.png"
        string_val: "AB/4131.png"
        string_val: "AB/4132.png"
        string_val: "AB/4133.png"
        string_val: "AB/4134.png"
        string_val: "AB/4135.png"
        string_val: "AB/4136.png"
        string_val: "AB/4137.png"
        string_val: "AB/4138.png"
        string_val: "AB/4139.png"
        string_val: "AB/4140.png"
        string_val: "AB/4141.png"
        string_val: "AB/4142.png"
        string_val: "AB/4143.png"
        string_val: "AB/4144.png"
        string_val: "AB/4145.png"
        string_val: "AB/4146.png"
        string_val: "AB/4147.png"
        string_val: "AB/4148.png"
        string_val: "AB/4149.png"
        string_val: "AB/4150.png"
        string_val: "AB/4151.png"
        string_val: "AB/4152.png"
        string_val: "AB/4153.png"
        string_val: "AB/4154.png"
        string_val: "AB/4155.png"
        string_val: "AB/4156.png"
        string_val: "AB/4157.png"
        string_val: "AB/4158.png"
        string_val: "AB/4159.png"
        string_val: "AB/4160.png"
        string_val: "AB/4161.png"
        string_val: "AB/4162.png"
        string_val: "AB/4163.png"
        string_val: "AB/4164.png"
        string_val: "AB/4165.png"
        string_val: "AB/4166.png"
        string_val: "AB/4167.png"
        string_val: "AB/4168.png"
        string_val: "AB/4169.png"
        string_val: "AB/4170.png"
        string_val: "AB/4171.png"
        string_val: "AB/4172.png"
        string_val: "AB/4173.png"
        string_val: "AB/4174.png"
        string_val: "AB/4175.png"
        string_val: "AB/4176.png"
        string_val: "AB/4177.png"
        string_val: "AB/4178.png"
        string_val: "AB/4179.png"
        string_val: "AB/4180.png"
        string_val: "AB/4181.png"
        string_val: "AB/4182.png"
        string_val: "AB/4183.png"
        string_val: "AB/4184.png"
        string_val: "AB/4185.png"
        string_val: "AB/4186.png"
        string_val: "AB/4187.png"
        string_val: "AB/4188.png"
        string_val: "AB/4189.png"
        string_val: "AB/4190.png"
        string_val: "AB/4191.png"
        string_val: "AB/4192.png"
        string_val: "AB/4193.png"
        string_val: "AB/4194.png"
        string_val: "AB/4195.png"
        string_val: "AB/4196.png"
        string_val: "AB/4197.png"
        string_val: "AB/4198.png"
        string_val: "AB/4199.png"
        string_val: "AB/4200.png"
        string_val: "AB/4201.png"
        string_val: "AB/4202.png"
        string_val: "AB/4203.png"
        string_val: "AB/4204.png"
        string_val: "AB/4205.png"
        string_val: "AB/4206.png"
        string_val: "AB/4207.png"
        string_val: "AB/4208.png"
        string_val: "AB/4209.png"
        string_val: "AB/4210.png"
        string_val: "AB/4211.png"
        string_val: "AB/4212.png"
        string_val: "AB/4213.png"
        string_val: "AB/4214.png"
        string_val: "AB/4215.png"
        string_val: "AB/4216.png"
        string_val: "AB/4217.png"
        string_val: "AB/4218.png"
        string_val: "AB/4219.png"
        string_val: "AB/4220.png"
        string_val: "AB/4221.png"
        string_val: "AB/4222.png"
        string_val: "AB/4223.png"
        string_val: "AB/4224.png"
        string_val: "AB/4225.png"
        string_val: "AB/4226.png"
        string_val: "AB/4227.png"
        string_val: "AB/4228.png"
        string_val: "AB/4229.png"
        string_val: "AB/4230.png"
        string_val: "AB/4231.png"
        string_val: "AB/4232.png"
        string_val: "AB/4233.png"
        string_val: "AB/4234.png"
        string_val: "AB/4235.png"
        string_val: "AB/4236.png"
        string_val: "AB/4237.png"
        string_val: "AB/4238.png"
        string_val: "AB/4239.png"
        string_val: "AB/4240.png"
        string_val: "AB/4241.png"
        string_val: "AB/4242.png"
        string_val: "AB/4243.png"
        string_val: "AB/4244.png"
        string_val: "AB/4245.png"
        string_val: "AB/4246.png"
        string_val: "AB/4247.png"
        string_val: "AB/4248.png"
        string_val: "AB/4249.png"
        string_val: "AB/4250.png"
        string_val: "AB/4251.png"
        string_val: "AB/4252.png"
        string_val: "AB/4253.png"
        string_val: "AB/4254.png"
        string_val: "AB/4255.png"
        string_val: "AB/4256.png"
        string_val: "AB/4257.png"
        string_val: "AB/4258.png"
        string_val: "AB/4259.png"
        string_val: "AB/4260.png"
        string_val: "AB/4261.png"
        string_val: "AB/4262.png"
        string_val: "AB/4263.png"
        string_val: "AB/4264.png"
        string_val: "AB/4265.png"
        string_val: "AB/4266.png"
        string_val: "AB/4267.png"
        string_val: "AB/4268.png"
        string_val: "AB/4269.png"
        string_val: "AB/4270.png"
        string_val: "AB/4271.png"
        string_val: "AB/4272.png"
        string_val: "AB/4273.png"
        string_val: "AB/4274.png"
        string_val: "AB/4275.png"
        string_val: "AB/4276.png"
        string_val: "AB/4277.png"
        string_val: "AB/4278.png"
        string_val: "AB/4279.png"
        string_val: "AB/4280.png"
        string_val: "AB/4281.png"
        string_val: "AB/4282.png"
        string_val: "AB/4283.png"
        string_val: "AB/4284.png"
        string_val: "AB/4285.png"
        string_val: "AB/4286.png"
        string_val: "AB/4287.png"
        string_val: "AB/4288.png"
        string_val: "AB/4289.png"
        string_val: "AB/4290.png"
        string_val: "AB/4291.png"
        string_val: "AB/4292.png"
        string_val: "AB/4293.png"
        string_val: "AB/4294.png"
        string_val: "AB/4295.png"
        string_val: "AB/4296.png"
        string_val: "AB/4297.png"
        string_val: "AB/4298.png"
        string_val: "AB/4299.png"
        string_val: "AB/4300.png"
        string_val: "AB/4301.png"
        string_val: "AB/4302.png"
        string_val: "AB/4303.png"
        string_val: "AB/4304.png"
        string_val: "AB/4305.png"
        string_val: "AB/4306.png"
        string_val: "AB/4307.png"
        string_val: "AB/4308.png"
        string_val: "AB/4309.png"
        string_val: "AB/4310.png"
        string_val: "AB/4311.png"
        string_val: "AB/4312.png"
        string_val: "AB/4313.png"
        string_val: "AB/4314.png"
        string_val: "AB/4315.png"
        string_val: "AB/4316.png"
        string_val: "AB/4317.png"
        string_val: "AB/4318.png"
        string_val: "AB/4319.png"
        string_val: "AB/4320.png"
        string_val: "AB/4321.png"
        string_val: "AB/4322.png"
        string_val: "AB/4323.png"
        string_val: "AB/4324.png"
        string_val: "AB/4325.png"
        string_val: "AB/4326.png"
        string_val: "AB/4327.png"
        string_val: "AB/4328.png"
        string_val: "AB/4329.png"
        string_val: "AB/4330.png"
        string_val: "AB/4331.png"
        string_val: "AB/4332.png"
        string_val: "AB/4333.png"
        string_val: "AB/4334.png"
        string_val: "AB/4335.png"
        string_val: "AB/4336.png"
        string_val: "AB/4337.png"
        string_val: "AB/4338.png"
        string_val: "AB/4339.png"
        string_val: "AB/4340.png"
        string_val: "AB/4341.png"
        string_val: "AB/4342.png"
        string_val: "AB/4343.png"
        string_val: "AB/4344.png"
        string_val: "AB/4345.png"
        string_val: "AB/4346.png"
        string_val: "AB/4347.png"
        string_val: "AB/4348.png"
        string_val: "AB/4349.png"
        string_val: "AB/4350.png"
        string_val: "AB/4351.png"
        string_val: "AB/4352.png"
        string_val: "AB/4353.png"
        string_val: "AB/4354.png"
        string_val: "AB/4355.png"
        string_val: "AB/4356.png"
        string_val: "AB/4357.png"
        string_val: "AB/4358.png"
        string_val: "AB/4359.png"
        string_val: "AB/4360.png"
        string_val: "AB/4361.png"
        string_val: "AB/4362.png"
        string_val: "AB/4363.png"
        string_val: "AB/4364.png"
        string_val: "AB/4365.png"
        string_val: "AB/4366.png"
        string_val: "AB/4367.png"
        string_val: "AB/4368.png"
        string_val: "AB/4369.png"
        string_val: "AB/4370.png"
        string_val: "AB/4371.png"
        string_val: "AB/4372.png"
        string_val: "AB/4373.png"
        string_val: "AB/4374.png"
        string_val: "AB/4375.png"
        string_val: "AB/4376.png"
        string_val: "AB/4377.png"
        string_val: "AB/4378.png"
        string_val: "AB/4379.png"
        string_val: "AB/4380.png"
        string_val: "AB/4381.png"
        string_val: "AB/4382.png"
        string_val: "AB/4383.png"
        string_val: "AB/4384.png"
        string_val: "AB/4385.png"
        string_val: "AB/4386.png"
        string_val: "AB/4387.png"
        string_val: "AB/4388.png"
        string_val: "AB/4389.png"
        string_val: "AB/4390.png"
        string_val: "AB/4391.png"
        string_val: "AB/4392.png"
        string_val: "AB/4393.png"
        string_val: "AB/4394.png"
        string_val: "AB/4395.png"
        string_val: "AB/4396.png"
        string_val: "AB/4397.png"
        string_val: "AB/4398.png"
        string_val: "AB/4399.png"
        string_val: "AB/4400.png"
        string_val: "AB/4401.png"
        string_val: "AB/4402.png"
        string_val: "AB/4403.png"
        string_val: "AB/4404.png"
        string_val: "AB/4405.png"
        string_val: "AB/4406.png"
        string_val: "AB/4407.png"
        string_val: "AB/4408.png"
        string_val: "AB/4409.png"
        string_val: "AB/4410.png"
        string_val: "AB/4411.png"
        string_val: "AB/4412.png"
        string_val: "AB/4413.png"
        string_val: "AB/4414.png"
        string_val: "AB/4415.png"
        string_val: "AB/4416.png"
        string_val: "AB/4417.png"
        string_val: "AB/4418.png"
        string_val: "AB/4419.png"
        string_val: "AB/4420.png"
        string_val: "AB/4421.png"
        string_val: "AB/4422.png"
        string_val: "AB/4423.png"
        string_val: "AB/4424.png"
        string_val: "AB/4425.png"
        string_val: "AB/4426.png"
        string_val: "AB/4427.png"
        string_val: "AB/4428.png"
        string_val: "AB/4429.png"
        string_val: "AB/4430.png"
…
        string_val: "generator/encoder_5/batch_normalization/gamma/Adam_1"
        string_val: "generator/encoder_5/batch_normalization/beta/Adam"
        string_val: "generator/encoder_5/batch_normalization/beta/Adam_1"
        string_val: "generator/encoder_6/conv2d/kernel/Adam"
        string_val: "generator/encoder_6/conv2d/kernel/Adam_1"
        string_val: "generator/encoder_6/conv2d/bias/Adam"
        string_val: "generator/encoder_6/conv2d/bias/Adam_1"
        string_val: "generator/encoder_6/batch_normalization/gamma/Adam"
        string_val: "generator/encoder_6/batch_normalization/gamma/Adam_1"
        string_val: "generator/encoder_6/batch_normalization/beta/Adam"
        string_val: "generator/encoder_6/batch_normalization/beta/Adam_1"
        string_val: "generator/encoder_7/conv2d/kernel/Adam"
        string_val: "generator/encoder_7/conv2d/kernel/Adam_1"
        string_val: "generator/encoder_7/conv2d/bias/Adam"
        string_val: "generator/encoder_7/conv2d/bias/Adam_1"
        string_val: "generator/encoder_7/batch_normalization/gamma/Adam"
        string_val: "generator/encoder_7/batch_normalization/gamma/Adam_1"
        string_val: "generator/encoder_7/batch_normalization/beta/Adam"
        string_val: "generator/encoder_7/batch_normalization/beta/Adam_1"
        string_val: "generator/encoder_8/conv2d/kernel/Adam"
        string_val: "generator/encoder_8/conv2d/kernel/Adam_1"
        string_val: "generator/encoder_8/conv2d/bias/Adam"
        string_val: "generator/encoder_8/conv2d/bias/Adam_1"
        string_val: "generator/encoder_8/batch_normalization/gamma/Adam"
        string_val: "generator/encoder_8/batch_normalization/gamma/Adam_1"
        string_val: "generator/encoder_8/batch_normalization/beta/Adam"
        string_val: "generator/encoder_8/batch_normalization/beta/Adam_1"
        string_val: "generator/decoder_8/conv2d_transpose/kernel/Adam"
        string_val: "generator/decoder_8/conv2d_transpose/kernel/Adam_1"
        string_val: "generator/decoder_8/conv2d_transpose/bias/Adam"
        string_val: "generator/decoder_8/conv2d_transpose/bias/Adam_1"
        string_val: "generator/decoder_8/batch_normalization/gamma/Adam"
        string_val: "generator/decoder_8/batch_normalization/gamma/Adam_1"
        string_val: "generator/decoder_8/batch_normalization/beta/Adam"
        string_val: "generator/decoder_8/batch_normalization/beta/Adam_1"
        string_val: "generator/decoder_7/conv2d_transpose/kernel/Adam"
        string_val: "generator/decoder_7/conv2d_transpose/kernel/Adam_1"
        string_val: "generator/decoder_7/conv2d_transpose/bias/Adam"
        string_val: "generator/decoder_7/conv2d_transpose/bias/Adam_1"
        string_val: "generator/decoder_7/batch_normalization/gamma/Adam"
        string_val: "generator/decoder_7/batch_normalization/gamma/Adam_1"
        string_val: "generator/decoder_7/batch_normalization/beta/Adam"
        string_val: "generator/decoder_7/batch_normalization/beta/Adam_1"
        string_val: "generator/decoder_6/conv2d_transpose/kernel/Adam"
        string_val: "generator/decoder_6/conv2d_transpose/kernel/Adam_1"
        string_val: "generator/decoder_6/conv2d_transpose/bias/Adam"
        string_val: "generator/decoder_6/conv2d_transpose/bias/Adam_1"
        string_val: "generator/decoder_6/batch_normalization/gamma/Adam"
        string_val: "generator/decoder_6/batch_normalization/gamma/Adam_1"
        string_val: "generator/decoder_6/batch_normalization/beta/Adam"
        string_val: "generator/decoder_6/batch_normalization/beta/Adam_1"
        string_val: "generator/decoder_5/conv2d_transpose/kernel/Adam"
        string_val: "generator/decoder_5/conv2d_transpose/kernel/Adam_1"
        string_val: "generator/decoder_5/conv2d_transpose/bias/Adam"
        string_val: "generator/decoder_5/conv2d_transpose/bias/Adam_1"
        string_val: "generator/decoder_5/batch_normalization/gamma/Adam"
        string_val: "generator/decoder_5/batch_normalization/gamma/Adam_1"
        string_val: "generator/decoder_5/batch_normalization/beta/Adam"
        string_val: "generator/decoder_5/batch_normalization/beta/Adam_1"
        string_val: "generator/decoder_4/conv2d_transpose/kernel/Adam"
        string_val: "generator/decoder_4/conv2d_transpose/kernel/Adam_1"
        string_val: "generator/decoder_4/conv2d_transpose/bias/Adam"
        string_val: "generator/decoder_4/conv2d_transpose/bias/Adam_1"
        string_val: "generator/decoder_4/batch_normalization/gamma/Adam"
        string_val: "generator/decoder_4/batch_normalization/gamma/Adam_1"
        string_val: "generator/decoder_4/batch_normalization/beta/Adam"
        string_val: "generator/decoder_4/batch_normalization/beta/Adam_1"
        string_val: "generator/decoder_3/conv2d_transpose/kernel/Adam"
        string_val: "generator/decoder_3/conv2d_transpose/kernel/Adam_1"
        string_val: "generator/decoder_3/conv2d_transpose/bias/Adam"
        string_val: "generator/decoder_3/conv2d_transpose/bias/Adam_1"
        string_val: "generator/decoder_3/batch_normalization/gamma/Adam"
        string_val: "generator/decoder_3/batch_normalization/gamma/Adam_1"
        string_val: "generator/decoder_3/batch_normalization/beta/Adam"
        string_val: "generator/decoder_3/batch_normalization/beta/Adam_1"
        string_val: "generator/decoder_2/conv2d_transpose/kernel/Adam"
        string_val: "generator/decoder_2/conv2d_transpose/kernel/Adam_1"
        string_val: "generator/decoder_2/conv2d_transpose/bias/Adam"
        string_val: "generator/decoder_2/conv2d_transpose/bias/Adam_1"
        string_val: "generator/decoder_2/batch_normalization/gamma/Adam"
        string_val: "generator/decoder_2/batch_normalization/gamma/Adam_1"
        string_val: "generator/decoder_2/batch_normalization/beta/Adam"
        string_val: "generator/decoder_2/batch_normalization/beta/Adam_1"
        string_val: "generator/decoder_1/conv2d_transpose/kernel/Adam"
        string_val: "generator/decoder_1/conv2d_transpose/kernel/Adam_1"
        string_val: "generator/decoder_1/conv2d_transpose/bias/Adam"
        string_val: "generator/decoder_1/conv2d_transpose/bias/Adam_1"
        string_val: "discriminator_loss/Mean/ExponentialMovingAverage"
        string_val: "generator_loss/Mean/ExponentialMovingAverage"
        string_val: "generator_loss/Mean_1/ExponentialMovingAverage"
        string_val: "global_step"
      }
    }
  }
}
node {
  name: "report_uninitialized_variables/boolean_mask/Shape"
  op: "Const"
  device: "/device:CPU:0"
  attr {
    key: "_output_shapes"
    value {
      list {
        shape {
          dim {
            size: 1
          }
        }
      }
    }
  }
  attr {
    key: "dtype"
    value {
      type: DT_INT32
    }
  }
  attr {
    key: "value"
    value {
      tensor {
        dtype: DT_INT32
        tensor_shape {
          dim {
            size: 1
          }
        }
        int_val: 270
      }
    }
  }
}
node {
  name: "report_uninitialized_variables/boolean_mask/strided_slice/stack"
  op: "Const"
  device: "/device:CPU:0"
  attr {
    key: "_output_shapes"
    value {
      list {
        shape {
          dim {
            size: 1
          }
        }
      }
    }
  }
  attr {
    key: "dtype"
    value {
      type: DT_INT32
    }
  }
  attr {
    key: "value"
    value {
      tensor {
        dtype: DT_INT32
        tensor_shape {
          dim {
            size: 1
          }
        }
        int_val: 0
      }
    }
  }
}
node {
  name: "report_uninitialized_variables/boolean_mask/strided_slice/stack_1"
  op: "Const"
  device: "/device:CPU:0"
  attr {
    key: "_output_shapes"
    value {
      list {
        shape {
          dim {
            size: 1
          }
        }
      }
    }
  }
  attr {
    key: "dtype"
    value {
      type: DT_INT32
    }
  }
  attr {
    key: "value"
    value {
      tensor {
        dtype: DT_INT32
        tensor_shape {
          dim {
            size: 1
          }
        }
        int_val: 1
      }
    }
  }
}
node {
  name: "report_uninitialized_variables/boolean_mask/strided_slice/stack_2"
  op: "Const"
  device: "/device:CPU:0"
  attr {
    key: "_output_shapes"
    value {
      list {
        shape {
          dim {
            size: 1
          }
        }
      }
    }
  }
  attr {
    key: "dtype"
    value {
      type: DT_INT32
    }
  }
  attr {
    key: "value"
    value {
      tensor {
        dtype: DT_INT32
        tensor_shape {
          dim {
            size: 1
          }
        }
        int_val: 1
      }
    }
  }
}
node {
  name: "report_uninitialized_variables/boolean_mask/strided_slice"
  op: "StridedSlice"
  input: "report_uninitialized_variables/boolean_mask/Shape"
  input: "report_uninitialized_variables/boolean_mask/strided_slice/stack"
  input: "report_uninitialized_variables/boolean_mask/strided_slice/stack_1"
  input: "report_uninitialized_variables/boolean_mask/strided_slice/stack_2"
  device: "/device:CPU:0"
  attr {
    key: "Index"
    value {
      type: DT_INT32
    }
  }
  attr {
    key: "T"
    value {
      type: DT_INT32
    }
  }
  attr {
    key: "_output_shapes"
    value {
      list {
        shape {
          dim {
            size: 1
          }
        }
      }
    }
  }
  attr {
    key: "begin_mask"
    value {
      i: 0
    }
  }
  attr {
    key: "ellipsis_mask"
    value {
      i: 0
    }
  }
  attr {
    key: "end_mask"
    value {
      i: 0
    }
  }
  attr {
    key: "new_axis_mask"
    value {
      i: 0
    }
  }
  attr {
    key: "shrink_axis_mask"
    value {
      i: 0
    }
  }
}
node {
  name: "report_uninitialized_variables/boolean_mask/Prod/reduction_indices"
  op: "Const"
  device: "/device:CPU:0"
  attr {
    key: "_output_shapes"
    value {
      list {
        shape {
          dim {
            size: 1
          }
        }
      }
    }
  }
  attr {
    key: "dtype"
    value {
      type: DT_INT32
    }
  }
  attr {
    key: "value"
    value {
      tensor {
        dtype: DT_INT32
        tensor_shape {
          dim {
            size: 1
          }
        }
        int_val: 0
      }
    }
  }
}
node {
  name: "report_uninitialized_variables/boolean_mask/Prod"
  op: "Prod"
  input: "report_uninitialized_variables/boolean_mask/strided_slice"
  input: "report_uninitialized_variables/boolean_mask/Prod/reduction_indices"
  device: "/device:CPU:0"
  attr {
    key: "T"
    value {
      type: DT_INT32
    }
  }
  attr {
    key: "Tidx"
    value {
      type: DT_INT32
    }
  }
  attr {
    key: "_output_shapes"
    value {
      list {
        shape {
        }
      }
    }
  }
  attr {
    key: "keep_dims"
    value {
      b: false
    }
  }
}
node {
  name: "report_uninitialized_variables/boolean_mask/Shape_1"
  op: "Const"
  device: "/device:CPU:0"
  attr {
    key: "_output_shapes"
    value {
      list {
        shape {
          dim {
            size: 1
          }
        }
      }
    }
  }
  attr {
    key: "dtype"
    value {
      type: DT_INT32
    }
  }
  attr {
    key: "value"
    value {
      tensor {
        dtype: DT_INT32
        tensor_shape {
          dim {
            size: 1
          }
        }
        int_val: 270
      }
    }
  }
}
node {
  name: "report_uninitialized_variables/boolean_mask/strided_slice_1/stack"
  op: "Const"
  device: "/device:CPU:0"
  attr {
    key: "_output_shapes"
    value {
      list {
        shape {
          dim {
            size: 1
          }
        }
      }
    }
  }
  attr {
    key: "dtype"
    value {
      type: DT_INT32
    }
  }
  attr {
    key: "value"
    value {
      tensor {
        dtype: DT_INT32
        tensor_shape {
          dim {
            size: 1
          }
        }
        int_val: 0
      }
    }
  }
}
node {
  name: "report_uninitialized_variables/boolean_mask/strided_slice_1/stack_1"
  op: "Const"
  device: "/device:CPU:0"
  attr {
    key: "_output_shapes"
    value {
      list {
        shape {
          dim {
            size: 1
          }
        }
      }
    }
  }
  attr {
    key: "dtype"
    value {
      type: DT_INT32
    }
  }
  attr {
    key: "value"
    value {
      tensor {
        dtype: DT_INT32
        tensor_shape {
          dim {
            size: 1
          }
        }
        int_val: 0
      }
    }
  }
}
node {
  name: "report_uninitialized_variables/boolean_mask/strided_slice_1/stack_2"
  op: "Const"
  device: "/device:CPU:0"
  attr {
    key: "_output_shapes"
    value {
      list {
        shape {
          dim {
            size: 1
          }
        }
      }
    }
  }
  attr {
    key: "dtype"
    value {
      type: DT_INT32
    }
  }
  attr {
    key: "value"
    value {
      tensor {
        dtype: DT_INT32
        tensor_shape {
          dim {
            size: 1
          }
        }
        int_val: 1
      }
    }
  }
}
node {
  name: "report_uninitialized_variables/boolean_mask/strided_slice_1"
  op: "StridedSlice"
  input: "report_uninitialized_variables/boolean_mask/Shape_1"
  input: "report_uninitialized_variables/boolean_mask/strided_slice_1/stack"
  input: "report_uninitialized_variables/boolean_mask/strided_slice_1/stack_1"
  input: "report_uninitialized_variables/boolean_mask/strided_slice_1/stack_2"
  device: "/device:CPU:0"
  attr {
    key: "Index"
    value {
      type: DT_INT32
    }
  }
  attr {
    key: "T"
    value {
      type: DT_INT32
    }
  }
  attr {
    key: "_output_shapes"
    value {
      list {
        shape {
          dim {
          }
        }
      }
    }
  }
  attr {
    key: "begin_mask"
    value {
      i: 1
    }
  }
  attr {
    key: "ellipsis_mask"
    value {
      i: 0
    }
  }
  attr {
    key: "end_mask"
    value {
      i: 0
    }
  }
  attr {
    key: "new_axis_mask"
    value {
      i: 0
    }
  }
  attr {
    key: "shrink_axis_mask"
    value {
      i: 0
    }
  }
}
node {
  name: "report_uninitialized_variables/boolean_mask/Shape_2"
  op: "Const"
  device: "/device:CPU:0"
  attr {
    key: "_output_shapes"
    value {
      list {
        shape {
          dim {
            size: 1
          }
        }
      }
    }
  }
  attr {
    key: "dtype"
    value {
      type: DT_INT32
    }
  }
  attr {
    key: "value"
    value {
      tensor {
        dtype: DT_INT32
        tensor_shape {
          dim {
            size: 1
          }
        }
        int_val: 270
      }
    }
  }
}
node {
  name: "report_uninitialized_variables/boolean_mask/strided_slice_2/stack"
  op: "Const"
  device: "/device:CPU:0"
  attr {
    key: "_output_shapes"
    value {
      list {
        shape {
          dim {
            size: 1
          }
        }
      }
    }
  }
  attr {
    key: "dtype"
    value {
      type: DT_INT32
    }
  }
  attr {
    key: "value"
    value {
      tensor {
        dtype: DT_INT32
        tensor_shape {
          dim {
            size: 1
          }
        }
        int_val: 1
      }
    }
  }
}
node {
  name: "report_uninitialized_variables/boolean_mask/strided_slice_2/stack_1"
  op: "Const"
  device: "/device:CPU:0"
  attr {
    key: "_output_shapes"
    value {
      list {
        shape {
          dim {
            size: 1
          }
        }
      }
    }
  }
  attr {
    key: "dtype"
    value {
      type: DT_INT32
    }
  }
  attr {
    key: "value"
    value {
      tensor {
        dtype: DT_INT32
        tensor_shape {
          dim {
            size: 1
          }
        }
        int_val: 0
      }
    }
  }
}
node {
  name: "report_uninitialized_variables/boolean_mask/strided_slice_2/stack_2"
  op: "Const"
  device: "/device:CPU:0"
  attr {
    key: "_output_shapes"
    value {
      list {
        shape {
          dim {
            size: 1
          }
        }
      }
    }
  }
  attr {
    key: "dtype"
    value {
      type: DT_INT32
    }
  }
  attr {
    key: "value"
    value {
      tensor {
        dtype: DT_INT32
        tensor_shape {
          dim {
            size: 1
          }
        }
        int_val: 1
      }
    }
  }
}
node {
  name: "report_uninitialized_variables/boolean_mask/strided_slice_2"
  op: "StridedSlice"
  input: "report_uninitialized_variables/boolean_mask/Shape_2"
  input: "report_uninitialized_variables/boolean_mask/strided_slice_2/stack"
  input: "report_uninitialized_variables/boolean_mask/strided_slice_2/stack_1"
  input: "report_uninitialized_variables/boolean_mask/strided_slice_2/stack_2"
  device: "/device:CPU:0"
  attr {
    key: "Index"
    value {
      type: DT_INT32
    }
  }
  attr {
    key: "T"
    value {
      type: DT_INT32
    }
  }
  attr {
    key: "_output_shapes"
    value {
      list {
        shape {
          dim {
          }
        }
      }
    }
  }
  attr {
    key: "begin_mask"
    value {
      i: 0
    }
  }
  attr {
    key: "ellipsis_mask"
    value {
      i: 0
    }
  }
  attr {
    key: "end_mask"
    value {
      i: 1
    }
  }
  attr {
    key: "new_axis_mask"
    value {
      i: 0
    }
  }
  attr {
    key: "shrink_axis_mask"
    value {
      i: 0
    }
  }
}
node {
  name: "report_uninitialized_variables/boolean_mask/concat/values_1"
  op: "Pack"
  input: "report_uninitialized_variables/boolean_mask/Prod"
  device: "/device:CPU:0"
  attr {
    key: "N"
    value {
      i: 1
    }
  }
  attr {
    key: "T"
    value {
      type: DT_INT32
    }
  }
  attr {
    key: "_output_shapes"
    value {
      list {
        shape {
          dim {
            size: 1
          }
        }
      }
    }
  }
  attr {
    key: "axis"
    value {
      i: 0
    }
  }
}
node {
  name: "report_uninitialized_variables/boolean_mask/concat/axis"
  op: "Const"
  device: "/device:CPU:0"
  attr {
    key: "_output_shapes"
    value {
      list {
        shape {
        }
      }
    }
  }
  attr {
    key: "dtype"
    value {
      type: DT_INT32
    }
  }
  attr {
    key: "value"
    value {
      tensor {
        dtype: DT_INT32
        tensor_shape {
        }
        int_val: 0
      }
    }
  }
}
node {
  name: "report_uninitialized_variables/boolean_mask/concat"
  op: "ConcatV2"
  input: "report_uninitialized_variables/boolean_mask/strided_slice_1"
  input: "report_uninitialized_variables/boolean_mask/concat/values_1"
  input: "report_uninitialized_variables/boolean_mask/strided_slice_2"
  input: "report_uninitialized_variables/boolean_mask/concat/axis"
  device: "/device:CPU:0"
  attr {
    key: "N"
    value {
      i: 3
    }
  }
  attr {
    key: "T"
    value {
      type: DT_INT32
    }
  }
  attr {
    key: "Tidx"
    value {
      type: DT_INT32
    }
  }
  attr {
    key: "_output_shapes"
    value {
      list {
        shape {
          dim {
            size: 1
          }
        }
      }
    }
  }
}
node {
  name: "report_uninitialized_variables/boolean_mask/Reshape"
  op: "Reshape"
  input: "report_uninitialized_variables/Const"
  input: "report_uninitialized_variables/boolean_mask/concat"
  device: "/device:CPU:0"
  attr {
    key: "T"
    value {
      type: DT_STRING
    }
  }
  attr {
    key: "Tshape"
    value {
      type: DT_INT32
    }
  }
  attr {
    key: "_output_shapes"
    value {
      list {
        shape {
          dim {
            size: 270
          }
        }
      }
    }
  }
}
node {
  name: "report_uninitialized_variables/boolean_mask/Reshape_1/shape"
  op: "Const"
  device: "/device:CPU:0"
  attr {
    key: "_output_shapes"
    value {
      list {
        shape {
          dim {
            size: 1
          }
        }
      }
    }
  }
  attr {
    key: "dtype"
    value {
      type: DT_INT32
    }
  }
  attr {
    key: "value"
    value {
      tensor {
        dtype: DT_INT32
        tensor_shape {
          dim {
            size: 1
          }
        }
        int_val: -1
      }
    }
  }
}
node {
  name: "report_uninitialized_variables/boolean_mask/Reshape_1"
  op: "Reshape"
  input: "report_uninitialized_variables/LogicalNot"
  input: "report_uninitialized_variables/boolean_mask/Reshape_1/shape"
  device: "/device:CPU:0"
  attr {
    key: "T"
    value {
      type: DT_BOOL
    }
  }
  attr {
    key: "Tshape"
    value {
      type: DT_INT32
    }
  }
  attr {
    key: "_output_shapes"
    value {
      list {
        shape {
          dim {
            size: 270
          }
        }
      }
    }
  }
}
node {
  name: "report_uninitialized_variables/boolean_mask/Where"
  op: "Where"
  input: "report_uninitialized_variables/boolean_mask/Reshape_1"
  device: "/device:CPU:0"
  attr {
    key: "T"
    value {
      type: DT_BOOL
    }
  }
  attr {
    key: "_output_shapes"
    value {
      list {
        shape {
          dim {
            size: -1
          }
          dim {
            size: 1
          }
        }
      }
    }
  }
}
node {
  name: "report_uninitialized_variables/boolean_mask/Squeeze"
  op: "Squeeze"
  input: "report_uninitialized_variables/boolean_mask/Where"
  device: "/device:CPU:0"
  attr {
    key: "T"
    value {
      type: DT_INT64
    }
  }
  attr {
    key: "_output_shapes"
    value {
      list {
        shape {
          dim {
            size: -1
          }
        }
      }
    }
  }
  attr {
    key: "squeeze_dims"
    value {
      list {
        i: 1
      }
    }
  }
}
node {
  name: "report_uninitialized_variables/boolean_mask/GatherV2/axis"
  op: "Const"
  device: "/device:CPU:0"
  attr {
    key: "_output_shapes"
    value {
      list {
        shape {
        }
      }
    }
  }
  attr {
    key: "dtype"
    value {
      type: DT_INT32
    }
  }
  attr {
    key: "value"
    value {
      tensor {
        dtype: DT_INT32
        tensor_shape {
        }
        int_val: 0
      }
    }
  }
}
node {
  name: "report_uninitialized_variables/boolean_mask/GatherV2"
  op: "GatherV2"
  input: "report_uninitialized_variables/boolean_mask/Reshape"
  input: "report_uninitialized_variables/boolean_mask/Squeeze"
  input: "report_uninitialized_variables/boolean_mask/GatherV2/axis"
  device: "/device:CPU:0"
  attr {
    key: "Taxis"
    value {
      type: DT_INT32
    }
  }
  attr {
    key: "Tindices"
    value {
      type: DT_INT64
    }
  }
  attr {
    key: "Tparams"
    value {
      type: DT_STRING
    }
  }
  attr {
    key: "_output_shapes"
    value {
      list {
        shape {
          dim {
            size: -1
          }
        }
      }
    }
  }
  attr {
    key: "batch_dims"
    value {
      i: 0
    }
  }
}
node {
  name: "init"
  op: "NoOp"
  input: "^discriminator/layer_1/conv2d/bias/Adam/Assign"
  input: "^discriminator/layer_1/conv2d/bias/Adam_1/Assign"
  input: "^discriminator/layer_1/conv2d/bias/Assign"
  input: "^discriminator/layer_1/conv2d/kernel/Adam/Assign"
  input: "^discriminator/layer_1/conv2d/kernel/Adam_1/Assign"
  input: "^discriminator/layer_1/conv2d/kernel/Assign"
  input: "^discriminator/layer_2/batch_normalization/beta/Adam/Assign"
  input: "^discriminator/layer_2/batch_normalization/beta/Adam_1/Assign"
  input: "^discriminator/layer_2/batch_normalization/beta/Assign"
  input: "^discriminator/layer_2/batch_normalization/gamma/Adam/Assign"
  input: "^discriminator/layer_2/batch_normalization/gamma/Adam_1/Assign"
  input: "^discriminator/layer_2/batch_normalization/gamma/Assign"
  input: "^discriminator/layer_2/batch_normalization/moving_mean/Assign"
  input: "^discriminator/layer_2/batch_normalization/moving_variance/Assign"
  input: "^discriminator/layer_2/conv2d/bias/Adam/Assign"
  input: "^discriminator/layer_2/conv2d/bias/Adam_1/Assign"
  input: "^discriminator/layer_2/conv2d/bias/Assign"
  input: "^discriminator/layer_2/conv2d/kernel/Adam/Assign"
  input: "^discriminator/layer_2/conv2d/kernel/Adam_1/Assign"
  input: "^discriminator/layer_2/conv2d/kernel/Assign"
  input: "^discriminator/layer_3/batch_normalization/beta/Adam/Assign"
  input: "^discriminator/layer_3/batch_normalization/beta/Adam_1/Assign"
  input: "^discriminator/layer_3/batch_normalization/beta/Assign"
  input: "^discriminator/layer_3/batch_normalization/gamma/Adam/Assign"
  input: "^discriminator/layer_3/batch_normalization/gamma/Adam_1/Assign"
  input: "^discriminator/layer_3/batch_normalization/gamma/Assign"
  input: "^discriminator/layer_3/batch_normalization/moving_mean/Assign"
  input: "^discriminator/layer_3/batch_normalization/moving_variance/Assign"
  input: "^discriminator/layer_3/conv2d/bias/Adam/Assign"
  input: "^discriminator/layer_3/conv2d/bias/Adam_1/Assign"
  input: "^discriminator/layer_3/conv2d/bias/Assign"
  input: "^discriminator/layer_3/conv2d/kernel/Adam/Assign"
  input: "^discriminator/layer_3/conv2d/kernel/Adam_1/Assign"
  input: "^discriminator/layer_3/conv2d/kernel/Assign"
  input: "^discriminator/layer_4/batch_normalization/beta/Adam/Assign"
  input: "^discriminator/layer_4/batch_normalization/beta/Adam_1/Assign"
  input: "^discriminator/layer_4/batch_normalization/beta/Assign"
  input: "^discriminator/layer_4/batch_normalization/gamma/Adam/Assign"
  input: "^discriminator/layer_4/batch_normalization/gamma/Adam_1/Assign"
  input: "^discriminator/layer_4/batch_normalization/gamma/Assign"
  input: "^discriminator/layer_4/batch_normalization/moving_mean/Assign"
  input: "^discriminator/layer_4/batch_normalization/moving_variance/Assign"
  input: "^discriminator/layer_4/conv2d/bias/Adam/Assign"
  input: "^discriminator/layer_4/conv2d/bias/Adam_1/Assign"
  input: "^discriminator/layer_4/conv2d/bias/Assign"
  input: "^discriminator/layer_4/conv2d/kernel/Adam/Assign"
  input: "^discriminator/layer_4/conv2d/kernel/Adam_1/Assign"
  input: "^discriminator/layer_4/conv2d/kernel/Assign"
  input: "^discriminator/layer_5/conv2d/bias/Adam/Assign"
  input: "^discriminator/layer_5/conv2d/bias/Adam_1/Assign"
  input: "^discriminator/layer_5/conv2d/bias/Assign"
  input: "^discriminator/layer_5/conv2d/kernel/Adam/Assign"
  input: "^discriminator/layer_5/conv2d/kernel/Adam_1/Assign"
  input: "^discriminator/layer_5/conv2d/kernel/Assign"
  input: "^discriminator_loss/Mean/ExponentialMovingAverage/Assign"
  input: "^discriminator_train/beta1_power/Assign"
  input: "^discriminator_train/beta2_power/Assign"
  input: "^generator/decoder_1/conv2d_transpose/bias/Adam/Assign"
  input: "^generator/decoder_1/conv2d_transpose/bias/Adam_1/Assign"
  input: "^generator/decoder_1/conv2d_transpose/bias/Assign"
  input: "^generator/decoder_1/conv2d_transpose/kernel/Adam/Assign"
  input: "^generator/decoder_1/conv2d_transpose/kernel/Adam_1/Assign"
  input: "^generator/decoder_1/conv2d_transpose/kernel/Assign"
  input: "^generator/decoder_2/batch_normalization/beta/Adam/Assign"
  input: "^generator/decoder_2/batch_normalization/beta/Adam_1/Assign"
  input: "^generator/decoder_2/batch_normalization/beta/Assign"
  input: "^generator/decoder_2/batch_normalization/gamma/Adam/Assign"
  input: "^generator/decoder_2/batch_normalization/gamma/Adam_1/Assign"
  input: "^generator/decoder_2/batch_normalization/gamma/Assign"
  input: "^generator/decoder_2/batch_normalization/moving_mean/Assign"
  input: "^generator/decoder_2/batch_normalization/moving_variance/Assign"
  input: "^generator/decoder_2/conv2d_transpose/bias/Adam/Assign"
  input: "^generator/decoder_2/conv2d_transpose/bias/Adam_1/Assign"
  input: "^generator/decoder_2/conv2d_transpose/bias/Assign"
  input: "^generator/decoder_2/conv2d_transpose/kernel/Adam/Assign"
  input: "^generator/decoder_2/conv2d_transpose/kernel/Adam_1/Assign"
  input: "^generator/decoder_2/conv2d_transpose/kernel/Assign"
  input: "^generator/decoder_3/batch_normalization/beta/Adam/Assign"
  input: "^generator/decoder_3/batch_normalization/beta/Adam_1/Assign"
  input: "^generator/decoder_3/batch_normalization/beta/Assign"
  input: "^generator/decoder_3/batch_normalization/gamma/Adam/Assign"
  input: "^generator/decoder_3/batch_normalization/gamma/Adam_1/Assign"
  input: "^generator/decoder_3/batch_normalization/gamma/Assign"
  input: "^generator/decoder_3/batch_normalization/moving_mean/Assign"
  input: "^generator/decoder_3/batch_normalization/moving_variance/Assign"
  input: "^generator/decoder_3/conv2d_transpose/bias/Adam/Assign"
  input: "^generator/decoder_3/conv2d_transpose/bias/Adam_1/Assign"
  input: "^generator/decoder_3/conv2d_transpose/bias/Assign"
  input: "^generator/decoder_3/conv2d_transpose/kernel/Adam/Assign"
  input: "^generator/decoder_3/conv2d_transpose/kernel/Adam_1/Assign"
  input: "^generator/decoder_3/conv2d_transpose/kernel/Assign"
  input: "^generator/decoder_4/batch_normalization/beta/Adam/Assign"
  input: "^generator/decoder_4/batch_normalization/beta/Adam_1/Assign"
  input: "^generator/decoder_4/batch_normalization/beta/Assign"
  input: "^generator/decoder_4/batch_normalization/gamma/Adam/Assign"
  input: "^generator/decoder_4/batch_normalization/gamma/Adam_1/Assign"
  input: "^generator/decoder_4/batch_normalization/gamma/Assign"
  input: "^generator/decoder_4/batch_normalization/moving_mean/Assign"
  input: "^generator/decoder_4/batch_normalization/moving_variance/Assign"
  input: "^generator/decoder_4/conv2d_transpose/bias/Adam/Assign"
  input: "^generator/decoder_4/conv2d_transpose/bias/Adam_1/Assign"
  input: "^generator/decoder_4/conv2d_transpose/bias/Assign"
  input: "^generator/decoder_4/conv2d_transpose/kernel/Adam/Assign"
  input: "^generator/decoder_4/conv2d_transpose/kernel/Adam_1/Assign"
  input: "^generator/decoder_4/conv2d_transpose/kernel/Assign"
  input: "^generator/decoder_5/batch_normalization/beta/Adam/Assign"
  input: "^generator/decoder_5/batch_normalization/beta/Adam_1/Assign"
  input: "^generator/decoder_5/batch_normalization/beta/Assign"
  input: "^generator/decoder_5/batch_normalization/gamma/Adam/Assign"
  input: "^generator/decoder_5/batch_normalization/gamma/Adam_1/Assign"
  input: "^generator/decoder_5/batch_normalization/gamma/Assign"
  input: "^generator/decoder_5/batch_normalization/moving_mean/Assign"
  input: "^generator/decoder_5/batch_normalization/moving_variance/Assign"
  input: "^generator/decoder_5/conv2d_transpose/bias/Adam/Assign"
  input: "^generator/decoder_5/conv2d_transpose/bias/Adam_1/Assign"
  input: "^generator/decoder_5/conv2d_transpose/bias/Assign"
  input: "^generator/decoder_5/conv2d_transpose/kernel/Adam/Assign"
  input: "^generator/decoder_5/conv2d_transpose/kernel/Adam_1/Assign"
  input: "^generator/decoder_5/conv2d_transpose/kernel/Assign"
  input: "^generator/decoder_6/batch_normalization/beta/Adam/Assign"
  input: "^generator/decoder_6/batch_normalization/beta/Adam_1/Assign"
  input: "^generator/decoder_6/batch_normalization/beta/Assign"
  input: "^generator/decoder_6/batch_normalization/gamma/Adam/Assign"
  input: "^generator/decoder_6/batch_normalization/gamma/Adam_1/Assign"
  input: "^generator/decoder_6/batch_normalization/gamma/Assign"
  input: "^generator/decoder_6/batch_normalization/moving_mean/Assign"
  input: "^generator/decoder_6/batch_normalization/moving_variance/Assign"
  input: "^generator/decoder_6/conv2d_transpose/bias/Adam/Assign"
  input: "^generator/decoder_6/conv2d_transpose/bias/Adam_1/Assign"
  input: "^generator/decoder_6/conv2d_transpose/bias/Assign"
  input: "^generator/decoder_6/conv2d_transpose/kernel/Adam/Assign"
  input: "^generator/decoder_6/conv2d_transpose/kernel/Adam_1/Assign"
  input: "^generator/decoder_6/conv2d_transpose/kernel/Assign"
  input: "^generator/decoder_7/batch_normalization/beta/Adam/Assign"
  input: "^generator/decoder_7/batch_normalization/beta/Adam_1/Assign"
  input: "^generator/decoder_7/batch_normalization/beta/Assign"
  input: "^generator/decoder_7/batch_normalization/gamma/Adam/Assign"
  input: "^generator/decoder_7/batch_normalization/gamma/Adam_1/Assign"
  input: "^generator/decoder_7/batch_normalization/gamma/Assign"
  input: "^generator/decoder_7/batch_normalization/moving_mean/Assign"
  input: "^generator/decoder_7/batch_normalization/moving_variance/Assign"
  input: "^generator/decoder_7/conv2d_transpose/bias/Adam/Assign"
  input: "^generator/decoder_7/conv2d_transpose/bias/Adam_1/Assign"
  input: "^generator/decoder_7/conv2d_transpose/bias/Assign"
  input: "^generator/decoder_7/conv2d_transpose/kernel/Adam/Assign"
  input: "^generator/decoder_7/conv2d_transpose/kernel/Adam_1/Assign"
  input: "^generator/decoder_7/conv2d_transpose/kernel/Assign"
  input: "^generator/decoder_8/batch_normalization/beta/Adam/Assign"
  input: "^generator/decoder_8/batch_normalization/beta/Adam_1/Assign"
  input: "^generator/decoder_8/batch_normalization/beta/Assign"
  input: "^generator/decoder_8/batch_normalization/gamma/Adam/Assign"
  input: "^generator/decoder_8/batch_normalization/gamma/Adam_1/Assign"
  input: "^generator/decoder_8/batch_normalization/gamma/Assign"
  input: "^generator/decoder_8/batch_normalization/moving_mean/Assign"
  input: "^generator/decoder_8/batch_normalization/moving_variance/Assign"
  input: "^generator/decoder_8/conv2d_transpose/bias/Adam/Assign"
  input: "^generator/decoder_8/conv2d_transpose/bias/Adam_1/Assign"
  input: "^generator/decoder_8/conv2d_transpose/bias/Assign"
  input: "^generator/decoder_8/conv2d_transpose/kernel/Adam/Assign"
  input: "^generator/decoder_8/conv2d_transpose/kernel/Adam_1/Assign"
  input: "^generator/decoder_8/conv2d_transpose/kernel/Assign"
  input: "^generator/encoder_1/conv2d/bias/Adam/Assign"
  input: "^generator/encoder_1/conv2d/bias/Adam_1/Assign"
  input: "^generator/encoder_1/conv2d/bias/Assign"
  input: "^generator/encoder_1/conv2d/kernel/Adam/Assign"
  input: "^generator/encoder_1/conv2d/kernel/Adam_1/Assign"
  input: "^generator/encoder_1/conv2d/kernel/Assign"
  input: "^generator/encoder_2/batch_normalization/beta/Adam/Assign"
  input: "^generator/encoder_2/batch_normalization/beta/Adam_1/Assign"
  input: "^generator/encoder_2/batch_normalization/beta/Assign"
  input: "^generator/encoder_2/batch_normalization/gamma/Adam/Assign"
  input: "^generator/encoder_2/batch_normalization/gamma/Adam_1/Assign"
  input: "^generator/encoder_2/batch_normalization/gamma/Assign"
  input: "^generator/encoder_2/batch_normalization/moving_mean/Assign"
  input: "^generator/encoder_2/batch_normalization/moving_variance/Assign"
  input: "^generator/encoder_2/conv2d/bias/Adam/Assign"
  input: "^generator/encoder_2/conv2d/bias/Adam_1/Assign"
  input: "^generator/encoder_2/conv2d/bias/Assign"
  input: "^generator/encoder_2/conv2d/kernel/Adam/Assign"
  input: "^generator/encoder_2/conv2d/kernel/Adam_1/Assign"
  input: "^generator/encoder_2/conv2d/kernel/Assign"
  input: "^generator/encoder_3/batch_normalization/beta/Adam/Assign"
  input: "^generator/encoder_3/batch_normalization/beta/Adam_1/Assign"
  input: "^generator/encoder_3/batch_normalization/beta/Assign"
  input: "^generator/encoder_3/batch_normalization/gamma/Adam/Assign"
  input: "^generator/encoder_3/batch_normalization/gamma/Adam_1/Assign"
  input: "^generator/encoder_3/batch_normalization/gamma/Assign"
  input: "^generator/encoder_3/batch_normalization/moving_mean/Assign"
  input: "^generator/encoder_3/batch_normalization/moving_variance/Assign"
  input: "^generator/encoder_3/conv2d/bias/Adam/Assign"
  input: "^generator/encoder_3/conv2d/bias/Adam_1/Assign"
  input: "^generator/encoder_3/conv2d/bias/Assign"
  input: "^generator/encoder_3/conv2d/kernel/Adam/Assign"
  input: "^generator/encoder_3/conv2d/kernel/Adam_1/Assign"
  input: "^generator/encoder_3/conv2d/kernel/Assign"
  input: "^generator/encoder_4/batch_normalization/beta/Adam/Assign"
  input: "^generator/encoder_4/batch_normalization/beta/Adam_1/Assign"
  input: "^generator/encoder_4/batch_normalization/beta/Assign"
  input: "^generator/encoder_4/batch_normalization/gamma/Adam/Assign"
  input: "^generator/encoder_4/batch_normalization/gamma/Adam_1/Assign"
  input: "^generator/encoder_4/batch_normalization/gamma/Assign"
  input: "^generator/encoder_4/batch_normalization/moving_mean/Assign"
  input: "^generator/encoder_4/batch_normalization/moving_variance/Assign"
  input: "^generator/encoder_4/conv2d/bias/Adam/Assign"
  input: "^generator/encoder_4/conv2d/bias/Adam_1/Assign"
  input: "^generator/encoder_4/conv2d/bias/Assign"
  input: "^generator/encoder_4/conv2d/kernel/Adam/Assign"
  input: "^generator/encoder_4/conv2d/kernel/Adam_1/Assign"
  input: "^generator/encoder_4/conv2d/kernel/Assign"
  input: "^generator/encoder_5/batch_normalization/beta/Adam/Assign"
  input: "^generator/encoder_5/batch_normalization/beta/Adam_1/Assign"
  input: "^generator/encoder_5/batch_normalization/beta/Assign"
  input: "^generator/encoder_5/batch_normalization/gamma/Adam/Assign"
  input: "^generator/encoder_5/batch_normalization/gamma/Adam_1/Assign"
  input: "^generator/encoder_5/batch_normalization/gamma/Assign"
  input: "^generator/encoder_5/batch_normalization/moving_mean/Assign"
  input: "^generator/encoder_5/batch_normalization/moving_variance/Assign"
  input: "^generator/encoder_5/conv2d/bias/Adam/Assign"
  input: "^generator/encoder_5/conv2d/bias/Adam_1/Assign"
  input: "^generator/encoder_5/conv2d/bias/Assign"
  input: "^generator/encoder_5/conv2d/kernel/Adam/Assign"
  input: "^generator/encoder_5/conv2d/kernel/Adam_1/Assign"
  input: "^generator/encoder_5/conv2d/kernel/Assign"
  input: "^generator/encoder_6/batch_normalization/beta/Adam/Assign"
  input: "^generator/encoder_6/batch_normalization/beta/Adam_1/Assign"
  input: "^generator/encoder_6/batch_normalization/beta/Assign"
  input: "^generator/encoder_6/batch_normalization/gamma/Adam/Assign"
  input: "^generator/encoder_6/batch_normalization/gamma/Adam_1/Assign"
  input: "^generator/encoder_6/batch_normalization/gamma/Assign"
  input: "^generator/encoder_6/batch_normalization/moving_mean/Assign"
  input: "^generator/encoder_6/batch_normalization/moving_variance/Assign"
  input: "^generator/encoder_6/conv2d/bias/Adam/Assign"
  input: "^generator/encoder_6/conv2d/bias/Adam_1/Assign"
  input: "^generator/encoder_6/conv2d/bias/Assign"
  input: "^generator/encoder_6/conv2d/kernel/Adam/Assign"
  input: "^generator/encoder_6/conv2d/kernel/Adam_1/Assign"
  input: "^generator/encoder_6/conv2d/kernel/Assign"
  input: "^generator/encoder_7/batch_normalization/beta/Adam/Assign"
  input: "^generator/encoder_7/batch_normalization/beta/Adam_1/Assign"
  input: "^generator/encoder_7/batch_normalization/beta/Assign"
  input: "^generator/encoder_7/batch_normalization/gamma/Adam/Assign"
  input: "^generator/encoder_7/batch_normalization/gamma/Adam_1/Assign"
  input: "^generator/encoder_7/batch_normalization/gamma/Assign"
  input: "^generator/encoder_7/batch_normalization/moving_mean/Assign"
  input: "^generator/encoder_7/batch_normalization/moving_variance/Assign"
  input: "^generator/encoder_7/conv2d/bias/Adam/Assign"
  input: "^generator/encoder_7/conv2d/bias/Adam_1/Assign"
  input: "^generator/encoder_7/conv2d/bias/Assign"
  input: "^generator/encoder_7/conv2d/kernel/Adam/Assign"
  input: "^generator/encoder_7/conv2d/kernel/Adam_1/Assign"
  input: "^generator/encoder_7/conv2d/kernel/Assign"
  input: "^generator/encoder_8/batch_normalization/beta/Adam/Assign"
  input: "^generator/encoder_8/batch_normalization/beta/Adam_1/Assign"
  input: "^generator/encoder_8/batch_normalization/beta/Assign"
  input: "^generator/encoder_8/batch_normalization/gamma/Adam/Assign"
  input: "^generator/encoder_8/batch_normalization/gamma/Adam_1/Assign"
  input: "^generator/encoder_8/batch_normalization/gamma/Assign"
  input: "^generator/encoder_8/batch_normalization/moving_mean/Assign"
  input: "^generator/encoder_8/batch_normalization/moving_variance/Assign"
  input: "^generator/encoder_8/conv2d/bias/Adam/Assign"
  input: "^generator/encoder_8/conv2d/bias/Adam_1/Assign"
  input: "^generator/encoder_8/conv2d/bias/Assign"
  input: "^generator/encoder_8/conv2d/kernel/Adam/Assign"
  input: "^generator/encoder_8/conv2d/kernel/Adam_1/Assign"
  input: "^generator/encoder_8/conv2d/kernel/Assign"
  input: "^generator_loss/Mean/ExponentialMovingAverage/Assign"
  input: "^generator_loss/Mean_1/ExponentialMovingAverage/Assign"
  input: "^generator_train/beta1_power/Assign"
  input: "^generator_train/beta2_power/Assign"
  input: "^global_step/Assign"
}
node {
  name: "init_1"
  op: "NoOp"
}
node {
  name: "init_all_tables"
  op: "NoOp"
}
node {
  name: "group_deps_1"
  op: "NoOp"
  input: "^init_1"
  input: "^init_all_tables"
}
node {
  name: "Merge/MergeSummary"
  op: "MergeSummary"
  input: "load_images/input_producer/fraction_of_32_full"
  input: "batch/fraction_of_32_full"
  input: "inputs_summary/inputs"
  input: "targets_summary/targets"
  input: "outputs_summary/outputs"
  input: "predict_real_summary/predict_real"
  input: "predict_fake_summary/predict_fake"
  input: "discriminator_loss_1"
  input: "generator_loss_GAN"
  input: "generator_loss_L1"
  input: "generator/encoder_1/conv2d/kernel/values"
  input: "generator/encoder_1/conv2d/bias/values"
  input: "generator/encoder_2/conv2d/kernel/values"
  input: "generator/encoder_2/conv2d/bias/values"
  input: "generator/encoder_2/batch_normalization/gamma/values"
  input: "generator/encoder_2/batch_normalization/beta/values"
  input: "generator/encoder_3/conv2d/kernel/values"
  input: "generator/encoder_3/conv2d/bias/values"
  input: "generator/encoder_3/batch_normalization/gamma/values"
  input: "generator/encoder_3/batch_normalization/beta/values"
  input: "generator/encoder_4/conv2d/kernel/values"
  input: "generator/encoder_4/conv2d/bias/values"
  input: "generator/encoder_4/batch_normalization/gamma/values"
  input: "generator/encoder_4/batch_normalization/beta/values"
  input: "generator/encoder_5/conv2d/kernel/values"
  input: "generator/encoder_5/conv2d/bias/values"
  input: "generator/encoder_5/batch_normalization/gamma/values"
  input: "generator/encoder_5/batch_normalization/beta/values"
  input: "generator/encoder_6/conv2d/kernel/values"
  input: "generator/encoder_6/conv2d/bias/values"
  input: "generator/encoder_6/batch_normalization/gamma/values"
  input: "generator/encoder_6/batch_normalization/beta/values"
  input: "generator/encoder_7/conv2d/kernel/values"
  input: "generator/encoder_7/conv2d/bias/values"
  input: "generator/encoder_7/batch_normalization/gamma/values"
  input: "generator/encoder_7/batch_normalization/beta/values"
  input: "generator/encoder_8/conv2d/kernel/values"
  input: "generator/encoder_8/conv2d/bias/values"
  input: "generator/encoder_8/batch_normalization/gamma/values"
  input: "generator/encoder_8/batch_normalization/beta/values"
  input: "generator/decoder_8/conv2d_transpose/kernel/values"
  input: "generator/decoder_8/conv2d_transpose/bias/values"
  input: "generator/decoder_8/batch_normalization/gamma/values"
  input: "generator/decoder_8/batch_normalization/beta/values"
  input: "generator/decoder_7/conv2d_transpose/kernel/values"
  input: "generator/decoder_7/conv2d_transpose/bias/values"
  input: "generator/decoder_7/batch_normalization/gamma/values"
  input: "generator/decoder_7/batch_normalization/beta/values"
  input: "generator/decoder_6/conv2d_transpose/kernel/values"
  input: "generator/decoder_6/conv2d_transpose/bias/values"
  input: "generator/decoder_6/batch_normalization/gamma/values"
  input: "generator/decoder_6/batch_normalization/beta/values"
  input: "generator/decoder_5/conv2d_transpose/kernel/values"
  input: "generator/decoder_5/conv2d_transpose/bias/values"
  input: "generator/decoder_5/batch_normalization/gamma/values"
  input: "generator/decoder_5/batch_normalization/beta/values"
  input: "generator/decoder_4/conv2d_transpose/kernel/values"
  input: "generator/decoder_4/conv2d_transpose/bias/values"
  input: "generator/decoder_4/batch_normalization/gamma/values"
  input: "generator/decoder_4/batch_normalization/beta/values"
  input: "generator/decoder_3/conv2d_transpose/kernel/values"
  input: "generator/decoder_3/conv2d_transpose/bias/values"
  input: "generator/decoder_3/batch_normalization/gamma/values"
  input: "generator/decoder_3/batch_normalization/beta/values"
  input: "generator/decoder_2/conv2d_transpose/kernel/values"
  input: "generator/decoder_2/conv2d_transpose/bias/values"
  input: "generator/decoder_2/batch_normalization/gamma/values"
  input: "generator/decoder_2/batch_normalization/beta/values"
  input: "generator/decoder_1/conv2d_transpose/kernel/values"
  input: "generator/decoder_1/conv2d_transpose/bias/values"
  input: "discriminator/layer_1/conv2d/kernel/values"
  input: "discriminator/layer_1/conv2d/bias/values"
  input: "discriminator/layer_2/conv2d/kernel/values"
  input: "discriminator/layer_2/conv2d/bias/values"
  input: "discriminator/layer_2/batch_normalization/gamma/values"
  input: "discriminator/layer_2/batch_normalization/beta/values"
  input: "discriminator/layer_3/conv2d/kernel/values"
  input: "discriminator/layer_3/conv2d/bias/values"
  input: "discriminator/layer_3/batch_normalization/gamma/values"
  input: "discriminator/layer_3/batch_normalization/beta/values"
  input: "discriminator/layer_4/conv2d/kernel/values"
  input: "discriminator/layer_4/conv2d/bias/values"
  input: "discriminator/layer_4/batch_normalization/gamma/values"
  input: "discriminator/layer_4/batch_normalization/beta/values"
  input: "discriminator/layer_5/conv2d/kernel/values"
  input: "discriminator/layer_5/conv2d/bias/values"
  input: "discriminator/layer_1/conv2d/kernel/gradients"
  input: "discriminator/layer_1/conv2d/bias/gradients"
  input: "discriminator/layer_2/conv2d/kernel/gradients"
  input: "discriminator/layer_2/conv2d/bias/gradients"
  input: "discriminator/layer_2/batch_normalization/gamma/gradients"
  input: "discriminator/layer_2/batch_normalization/beta/gradients"
  input: "discriminator/layer_3/conv2d/kernel/gradients"
  input: "discriminator/layer_3/conv2d/bias/gradients"
  input: "discriminator/layer_3/batch_normalization/gamma/gradients"
  input: "discriminator/layer_3/batch_normalization/beta/gradients"
  input: "discriminator/layer_4/conv2d/kernel/gradients"
  input: "discriminator/layer_4/conv2d/bias/gradients"
  input: "discriminator/layer_4/batch_normalization/gamma/gradients"
  input: "discriminator/layer_4/batch_normalization/beta/gradients"
  input: "discriminator/layer_5/conv2d/kernel/gradients"
  input: "discriminator/layer_5/conv2d/bias/gradients"
  input: "generator/encoder_1/conv2d/kernel/gradients"
  input: "generator/encoder_1/conv2d/bias/gradients"
  input: "generator/encoder_2/conv2d/kernel/gradients"
  input: "generator/encoder_2/conv2d/bias/gradients"
  input: "generator/encoder_2/batch_normalization/gamma/gradients"
  input: "generator/encoder_2/batch_normalization/beta/gradients"
  input: "generator/encoder_3/conv2d/kernel/gradients"
  input: "generator/encoder_3/conv2d/bias/gradients"
  input: "generator/encoder_3/batch_normalization/gamma/gradients"
  input: "generator/encoder_3/batch_normalization/beta/gradients"
  input: "generator/encoder_4/conv2d/kernel/gradients"
  input: "generator/encoder_4/conv2d/bias/gradients"
  input: "generator/encoder_4/batch_normalization/gamma/gradients"
  input: "generator/encoder_4/batch_normalization/beta/gradients"
  input: "generator/encoder_5/conv2d/kernel/gradients"
  input: "generator/encoder_5/conv2d/bias/gradients"
  input: "generator/encoder_5/batch_normalization/gamma/gradients"
  input: "generator/encoder_5/batch_normalization/beta/gradients"
  input: "generator/encoder_6/conv2d/kernel/gradients"
  input: "generator/encoder_6/conv2d/bias/gradients"
  input: "generator/encoder_6/batch_normalization/gamma/gradients"
  input: "generator/encoder_6/batch_normalization/beta/gradients"
  input: "generator/encoder_7/conv2d/kernel/gradients"
  input: "generator/encoder_7/conv2d/bias/gradients"
  input: "generator/encoder_7/batch_normalization/gamma/gradients"
  input: "generator/encoder_7/batch_normalization/beta/gradients"
  input: "generator/encoder_8/conv2d/kernel/gradients"
  input: "generator/encoder_8/conv2d/bias/gradients"
  input: "generator/encoder_8/batch_normalization/gamma/gradients"
  input: "generator/encoder_8/batch_normalization/beta/gradients"
  input: "generator/decoder_8/conv2d_transpose/kernel/gradients"
  input: "generator/decoder_8/conv2d_transpose/bias/gradients"
  input: "generator/decoder_8/batch_normalization/gamma/gradients"
  input: "generator/decoder_8/batch_normalization/beta/gradients"
  input: "generator/decoder_7/conv2d_transpose/kernel/gradients"
  input: "generator/decoder_7/conv2d_transpose/bias/gradients"
  input: "generator/decoder_7/batch_normalization/gamma/gradients"
  input: "generator/decoder_7/batch_normalization/beta/gradients"
  input: "generator/decoder_6/conv2d_transpose/kernel/gradients"
  input: "generator/decoder_6/conv2d_transpose/bias/gradients"
  input: "generator/decoder_6/batch_normalization/gamma/gradients"
  input: "generator/decoder_6/batch_normalization/beta/gradients"
  input: "generator/decoder_5/conv2d_transpose/kernel/gradients"
  input: "generator/decoder_5/conv2d_transpose/bias/gradients"
  input: "generator/decoder_5/batch_normalization/gamma/gradients"
  input: "generator/decoder_5/batch_normalization/beta/gradients"
  input: "generator/decoder_4/conv2d_transpose/kernel/gradients"
  input: "generator/decoder_4/conv2d_transpose/bias/gradients"
  input: "generator/decoder_4/batch_normalization/gamma/gradients"
  input: "generator/decoder_4/batch_normalization/beta/gradients"
  input: "generator/decoder_3/conv2d_transpose/kernel/gradients"
  input: "generator/decoder_3/conv2d_transpose/bias/gradients"
  input: "generator/decoder_3/batch_normalization/gamma/gradients"
  input: "generator/decoder_3/batch_normalization/beta/gradients"
  input: "generator/decoder_2/conv2d_transpose/kernel/gradients"
  input: "generator/decoder_2/conv2d_transpose/bias/gradients"
  input: "generator/decoder_2/batch_normalization/gamma/gradients"
  input: "generator/decoder_2/batch_normalization/beta/gradients"
  input: "generator/decoder_1/conv2d_transpose/kernel/gradients"
  input: "generator/decoder_1/conv2d_transpose/bias/gradients"
  attr {
    key: "N"
    value {
      i: 162
    }
  }
  attr {
    key: "_output_shapes"
    value {
      list {
        shape {
        }
      }
    }
  }
}
versions {
  producer: 38
}
